decoder_weights.pth (torch, 612486 bytes, 19 tensors)

layer1.0.weight f4 [64, 3, 3, 3]
0	0x3d4df072	0.050278135
1	0x3e0ae2e5	0.13563116
2	0xbcd7f392	-0.02636126
3	0xbc6c6965	-0.014429425
4	0xbdff7509	-0.124734946
5	0x3dfd9719	0.12382335
6	0x393eb654	0.00018187735
7	0xbe409c92	-0.18809727
8	0xbe1f56d8	-0.15560472
9	0x3cc9f9ad	0.024655188
10	0x3d657992	0.05602414
11	0xbdbcb35f	-0.092139
12	0x3e753b20	0.23948336
13	0x3e2dc7a3	0.16970687
14	0xbdfbec62	-0.12300946
15	0x3e5390c7	0.20660697
16	0x3e6cba74	0.23118001
17	0xba2effd1	-0.0006675693
18	0xbd1ecea4	-0.038771287
19	0xbdd9a912	-0.10627951
20	0x3cedbe5c	0.029021434
21	0xbd1faa60	-0.03898084
22	0x3db00abb	0.08595797
23	0x3e0dd9a2	0.13852552
24	0xbce9d94e	-0.028546002
25	0xbe1952a5	-0.14972933
26	0x3c4393a2	0.011937054
27	0xbe2670db	-0.16253988
28	0xbe4ba0f9	-0.19885625
29	0xbd35748b	-0.044300597
30	0xbdb2e481	-0.0873499
31	0x3e0492f5	0.12946685
32	0x3bc839b0	0.0061103925
33	0x3d9707f6	0.07374565
34	0xbcebba5f	-0.028775392
35	0xbe23d7ac	-0.16000241
36	0x3dca449f	0.0987637
37	0x3c4083b0	0.011750147
38	0xbc0d0b50	-0.008608654
39	0x3b180d5a	0.0023201318
40	0x3e43a8b5	0.19107325
41	0x3d8c083c	0.06837508
42	0x3e0b282b	0.13589542
43	0xbd99905d	-0.07498238
44	0x3d70d670	0.058798254
45	0x3c850fca	0.01624288
46	0x3c3a6d4b	0.011378597
47	0xbe1a97a6	-0.15096912
48	0x3e20ab29	0.15690292
49	0xbe27c52f	-0.16383813
50	0xbd3b6d5f	-0.0457586
51	0xbd6ebf65	-0.058287997
52	0xbd87d07e	-0.066315636
53	0x3d32e4e2	0.04367531
54	0x3d40df05	0.047087688
55	0x3e25218e	0.16126081
56	0xbe7e244b	-0.24818532
57	0x3e18d1af	0.14923738
58	0xbd9dcdcd	-0.07705269
59	0xbe038fc5	-0.12847812
60	0xbe23f98a	-0.1601316
61	0x3e4875a8	0.19576132
62	0xbdd3b3a7	-0.10337
63	0xbcbbcba7	-0.022924257
64	0xbe03c758	-0.12869012
65	0xbea9ad44	-0.33140004
66	0xbca3beb1	-0.01998839
67	0xbd2abdc5	-0.041684885
68	0xbeea4c70	-0.45761442
69	0x3df26d58	0.11837262
70	0xbd9d51d2	-0.076816216
71	0xbee9b5ac	-0.45646417
72	0x3ca8e185	0.020615349
73	0x3db38af3	0.08766737
74	0xbcc57bd3	-0.024106896
75	0xbe449e22	-0.19200948
76	0x3e18ac5e	0.14909503
77	0xbe8ecb42	-0.27889448
78	0x3d535773	0.05159707
79	0x3e26b253	0.16278963
80	0xbe85f06a	-0.26159984
81	0xbca59b49	-0.020215647
82	0xbe5731f8	-0.21015155
83	0x3e035e1d	0.1282887
84	0x3db17d6f	0.08666503
85	0xbcb67245	-0.022271285
86	0xbd82dd03	-0.06389811
87	0xbd1bf057	-0.038071003
88	0x3cf71c56	0.030164879
89	0xbde4dd00	-0.11174965
90	0xbdf68b57	-0.12038296
91	0x3dd64062	0.10461499
92	0x3cc42c68	0.023946956
93	0x3cf06b02	0.0293479
94	0x3e82bd14	0.2553488
95	0x3cf1b92a	0.029507238
96	0xbd882833	-0.066482924
97	0x3e845a41	0.25850108
98	0x3e4e75f6	0.20162186
99	0x3e013563	0.12618022
100	0x3e0a8718	0.13528097
101	0xbdcfc904	-0.101457626
102	0xbe35c1aa	-0.17749658
103	0x3e1d8de3	0.15386157
104	0xbde276dd	-0.110578276
105	0xbd8591f1	-0.06521977
106	0x3d22623a	0.039644457
107	0xbe3aaff4	-0.18231183
108	0x3d222f54	0.039595917
109	0xbcd1a00a	-0.025589008
110	0xbe3b36bb	-0.18282597
111	0xbd85468b	-0.06507596
112	0xbd99ecfe	-0.07515906
113	0x3d9c00e3	0.07617357
114	0x3d6861fe	0.056734078
115	0x3dad7b65	0.08470801
116	0xbceaf6ea	-0.02868219
117	0x3e69c040	0.22827244
118	0x3e814f31	0.2525573
119	0x3e4c7957	0.19968162
120	0x3e5de6c8	0.21670067
121	0x3e7e468a	0.24831596
122	0x3e358d4d	0.17729683
123	0x3dbdaa5d	0.0926101
124	0x3d885478	0.06656736
125	0xbd5e37d2	-0.054252453
126	0xbb834752	-0.004006305
127	0x3e1063a6	0.14100513
128	0xbda2eb02	-0.079549804
129	0xbd4ce404	-0.05002214
130	0xbde0cc2e	-0.10976444
131	0xbbdace13	-0.006677398
132	0xbe11b5dc	-0.1422953
133	0x3cdeedfe	0.027213093
134	0xbe18842f	-0.14894174
135	0xbe162344	-0.1466189
136	0xbc739dad	-0.014869136
137	0x3bc93c23	0.006141202
138	0xbcc9505b	-0.02457445
139	0x3dbce440	0.09223223
140	0x3d7d985a	0.061912872
141	0x3d46d91b	0.04854689
142	0xbe42d347	-0.19025908
143	0xbe001164	-0.12506634
144	0xbc8fb61a	-0.017542887
145	0x3d5384f0	0.05164045
146	0x3dfa762e	0.12229572
147	0x3e5521b5	0.2081364
148	0x3d122841	0.03568292
149	0x3df849e0	0.121234655
150	0x3d322b9a	0.043498613
151	0x3e5b73b6	0.21430859
152	0x3e106c44	0.141038
153	0xbdc75ccc	-0.097344965
154	0x3d9df90c	0.077135175
155	0x3c842895	0.016132632
156	0xbe1ca7d0	-0.1529839
157	0x3cedf9a3	0.0290497
158	0xbd238ec9	-0.039931092
159	0x3d147cfa	0.036252
160	0xbc5d0511	-0.013489977
161	0xbdbd3c01	-0.092399605
162	0x3dec83e4	0.11548594
163	0x3dc6dfba	0.09710641
164	0xbe0b02dd	-0.13575311
165	0xbe0e8d26	-0.13921031
166	0xbe0f4346	-0.13990507
167	0xbd67ba96	-0.056574427
168	0x3df813bb	0.12113138
169	0xbe3f33b5	-0.18672068
170	0x3d15faef	0.036616262
171	0x3e4d4906	0.20047387
172	0x3d1aa3e9	0.037753973
173	0x3ca0a629	0.019610481
174	0x3e01f14e	0.12689707
175	0x3cad5434	0.021158315
176	0x3e0311d2	0.12799767
177	0x3e2eec1a	0.17082253
178	0x3d83d0bc	0.06436297
179	0xbceff627	-0.02929218
180	0x3e0bd2bb	0.13654606
181	0xbd2f1075	-0.042740304
182	0x3dc14a5b	0.0943801
183	0x3e24c894	0.1609214
184	0x3dffb300	0.124853134
185	0xbe51e249	-0.20496477
186	0x3d955a22	0.07292582
187	0xbd96a13f	-0.07354974
188	0xbe781d4b	-0.24229924
189	0xbcaa9df6	-0.020827275
190	0xbde4f981	-0.111804016
191	0xbd81bcf7	-0.0633487
192	0x3d95dd19	0.07317562
193	0x3d87f18f	0.066378705
194	0x3da8894a	0.08229311
195	0x3e19570e	0.14974615
196	0x3d247b7a	0.04015682
197	0xb9c5c956	-0.00037724775
198	0xbe006d0f	-0.12541603
199	0x3dda007f	0.10644626
200	0x3ccc301e	0.024925288
201	0xbe2e0802	-0.16995242
202	0xbe1bad30	-0.15202785
203	0xbe1c05f6	-0.15236649
204	0x3d3ac861	0.045601252
205	0x3cf7d967	0.030255033
206	0xbe566b3e	-0.20939347
207	0xbd7e9cee	-0.06216138
208	0x3ba9c4fc	0.005180953
209	0x3db2c728	0.08729392
210	0x3e1f70b1	0.15570332
211	0x3de81f15	0.113340534
212	0x3e295219	0.16535224
213	0x3cd48a98	0.025944993
214	0xbe1877d1	-0.14889456
215	0x3b5e1768	0.0033888463
216	0xbe2b7c12	-0.16746548
217	0xbcf8ce33	-0.030371761
218	0x3deb2cad	0.114831306
219	0xbe1fb652	-0.15596893
220	0xbd904b12	-0.070455685
221	0xbd975ba0	-0.07390523
222	0xbe51d0d8	-0.20489824
223	0xbdd5cc9a	-0.10439415
224	0x3d2d5080	0.0423131
225	0x3d92700b	0.07150277
226	0x3e4e9d43	0.20177178
227	0x3d5d0f81	0.053969864
228	0x3e1ffd10	0.1562388
229	0xbb46f5fc	-0.003035902
230	0xbd8201d3	-0.06348004
231	0x3e44f317	0.19233356
232	0x3e2bc81c	0.16775554
233	0xbc9c1033	-0.019050693
234	0xbe21218e	-0.15735456
235	0x3e19dbaa	0.15025201
236	0x3b3ae718	0.002851909
237	0xbdd9e7e2	-0.10639931
238	0xbd349b47	-0.044093397
239	0xbc18942b	-0.00931267
240	0x3e1b09f5	0.15140517
241	0x3d91bf59	0.07116575
242	0xbd7cd2f5	-0.06172462
243	0xbc3dd729	-0.011586943
244	0x3dfc603f	0.12323045
245	0xbe15f393	-0.14643697
246	0xbbd4357f	-0.006476104
247	0x3e2e72c7	0.17035972
248	0x3d236130	0.039887607
249	0x3b07db0b	0.0020729925
250	0x3dbf3639	0.09336514
251	0x3caadf4c	0.02085843
252	0xbe0c5500	-0.137043
253	0x3d224d41	0.039624456
254	0x3db5eaba	0.08882661
255	0xbe10b0d0	-0.14129949

layer1.0.bias f4 [64]
0	0x3c48f833	0.012266207
1	0x3e3b3263	0.1828094
2	0x3c16e65b	0.009210194
3	0x3ceef120	0.029167712
4	0xbd04b45e	-0.032398574
5	0x3d926fd2	0.07150234
6	0x3d85ef9c	0.065398425
7	0x3e76aa8e	0.24088499
8	0x3bd5f619	0.0065295813
9	0x3e31ef26	0.17376384
10	0xbcab20c8	-0.020889655
11	0x3e6ae152	0.22937515
12	0x3df59ed2	0.11993183
13	0xbd0f494d	-0.034982014
14	0x3e18bb25	0.1491514
15	0x3e89ad7a	0.26890165
16	0xbdf73aa3	-0.12071731
17	0x3c8f57cb	0.017497918
18	0x3c84e548	0.016222611
19	0xbe3eed30	-0.18645167
20	0x3e373b7b	0.17893784
21	0x3ce334c2	0.027735118
22	0x3e9b6535	0.30350652
23	0x3dd68c45	0.10475973
24	0x3e251b01	0.16123582
25	0x3e1eba67	0.15500794
26	0x3e5069d3	0.20352869
27	0x3c2cb81a	0.01054194
28	0xbe23b017	-0.15985142
29	0x3e55e4e3	0.20888095
30	0x3e87a037	0.26489422
31	0xbe0b0a73	-0.13578205
32	0xbdd3ea8e	-0.10347472
33	0xbd2fa8f4	-0.042885736
34	0x3e1bc4f7	0.15211855
35	0x3e981066	0.2970001
36	0xbe3cf7cd	-0.18453903
37	0x3c015469	0.00789366
38	0xbe199b26	-0.1500059
39	0xbe50d032	-0.2039192
40	0x3bc7cc09	0.006097321
41	0xbbf5ffc5	-0.0075072967
42	0x3e4cdee5	0.20006903
43	0x3de5cca9	0.112206765
44	0xbe1c5706	-0.15267572
45	0x3d964fbd	0.073394276
46	0x3c7ab94f	0.01530297
47	0x3d6c6dfb	0.057722073
48	0x3db6a9f6	0.08919136
49	0x3d3688e7	0.044564154
50	0xbe45b630	-0.1930778
51	0x3da589fb	0.08082958
52	0x3e3dbd5d	0.18529268
53	0x3e23d550	0.15999341
54	0xbd59313f	-0.05302548
55	0x3e1a3604	0.15059668
56	0x3bf7ee84	0.007566275
57	0xbcb68eb0	-0.022284836
58	0x3e273a5e	0.16330859
59	0xbd3245a9	-0.043523464
60	0x3d174a0d	0.036935855
61	0x3c30e8ad	0.010797662
62	0x3cd08e1a	0.025458384
63	0xbdebf2af	-0.115208976

layer1.2.weight f4 [64]
0	0x3f4f323f	0.80936044
1	0x3f4580c7	0.77149624
2	0x3f51a39a	0.8189026
3	0x3f6dfc47	0.9296307
4	0x3f5e346d	0.86798745
5	0x3f668e8b	0.90061253
6	0x3f3c77b3	0.73620147
7	0x3f71e79e	0.94494045
8	0x3f6393de	0.888975
9	0x3f646bb2	0.8922683
10	0x3f5d1227	0.86355823
11	0x3f655bc6	0.8959316
12	0x3f68766a	0.90805686
13	0x3f54b2d4	0.8308537
14	0x3f7ed9e8	0.9955125
15	0x3f5366a4	0.8257849
16	0x3f4af583	0.7928087
17	0x3f62fa54	0.8866322
18	0x3f50de9d	0.8158968
19	0x3f690be9	0.910338
20	0x3f56377d	0.8367842
21	0x3f445046	0.7668499
22	0x3f75460e	0.9581002
23	0x3f57cff8	0.8430171
24	0x3f463d99	0.7743774
25	0x3f50a909	0.8150793
26	0x3f3c75a1	0.7361699
27	0x3f64d01f	0.8938007
28	0x3f64e270	0.89408016
29	0x3f7c4761	0.98546416
30	0x3f6e7ec7	0.93162197
31	0x3f4a54a6	0.79035413
32	0x3f64159f	0.8909549
33	0x3f61f90b	0.88270634
34	0x3f7d9b2a	0.99064887
35	0x3f800211	1.0000631
36	0x3f4f73b5	0.8103593
37	0x3f709272	0.9397346
38	0x3f4577ab	0.77135724
39	0x3f4ebe5a	0.80759203
40	0x3f7c2234	0.9848969
41	0x3f51333f	0.8171882
42	0x3f518f41	0.81859213
43	0x3f844a12	1.0335104
44	0x3f6e7b07	0.93156475
45	0x3f43bfbc	0.7646444
46	0x3f4dd433	0.80401915
47	0x3f3759f8	0.71621656
48	0x3f49aa47	0.7877545
49	0x3f593bb1	0.84856707
50	0x3f66e042	0.9018594
51	0x3f5bae02	0.8581239
52	0x3f66d1c1	0.9016381
53	0x3f5df470	0.8670111
54	0x3f59c751	0.8506976
55	0x3f7cbd0e	0.98725975
56	0x3f65cc3f	0.8976478
57	0x3f5c5b69	0.8607698
58	0x3f705dd2	0.9389316
59	0x3f40ab78	0.7526164
60	0x3f60ebd7	0.87859863
61	0x3f8b6ff9	1.0893546
62	0x3f4d9450	0.8030443
63	0x3f8e619d	1.1123539

layer1.2.bias f4 [64]
0	0x3e021483	0.12703137
1	0xbbae7b40	-0.005324751
2	0xbead9055	-0.3389918
3	0x3c65040e	0.0139780175
4	0x3d433441	0.047657255
5	0x3de7e0de	0.11322187
6	0x3e3ecfac	0.18633908
7	0xbda00758	-0.07813901
8	0x3e08412e	0.13306114
9	0x3daf22b9	0.08551545
10	0x3decf8e1	0.115709074
11	0xbd83b8be	-0.06431721
12	0xbc4fbfea	-0.012680033
13	0x3e223dbb	0.15843861
14	0xbd1c43a1	-0.038150433
15	0xbdfad273	-0.12247171
16	0x3d3463bc	0.044040427
17	0xbdd2dfa4	-0.10296562
18	0x3e366a32	0.17813948
19	0x3f06f1e6	0.5271286
20	0xbdbbc03e	-0.09167527
21	0x3e5d8fd5	0.21636899
22	0xbda3907e	-0.07986544
23	0xbdfe5bf8	-0.124198854
24	0xbd60f561	-0.05492151
25	0x3cd11c19	0.025526093
26	0xbc6f0b2d	-0.014590067
27	0xbcc24262	-0.023713294
28	0xbed0d55d	-0.40787783
29	0xbd0d5f2d	-0.034514595
30	0xbd814163	-0.063113
31	0xba89837b	-0.0010491455
32	0x3d4b5811	0.049644534
33	0x3ddca709	0.10774047
34	0x3d845739	0.06461949
35	0xbd2e69ce	-0.042581372
36	0xbb161513	-0.0022900745
37	0x3ccbfb2a	0.024900038
38	0x3d00d374	0.031451657
39	0x3b005db9	0.0019587113
40	0xbed9f210	-0.42567492
41	0x3e39c3d5	0.1814111
42	0x3d555650	0.052084267
43	0x3da41d35	0.08013383
44	0xbe5a77f7	-0.21334825
45	0x3e0fc46e	0.14039776
46	0xbe1fcd4b	-0.15605657
47	0x3e0ae7db	0.13565008
48	0x3e0feb8c	0.14054698
49	0xbbe0d9b5	-0.00686189
50	0xbf0ba2e1	-0.5454541
51	0x3dacb894	0.08433643
52	0x3e03ebb2	0.1288288
53	0x3da1bc98	0.078972995
54	0xbe127d6e	-0.1430566
55	0xbd563f14	-0.05230625
56	0xbd89f152	-0.06735481
57	0xbd82b7c4	-0.06382707
58	0xbd9c5ad1	-0.07634509
59	0xbe969bef	-0.29415843
60	0xbb751b30	-0.0037400238
61	0xbdf88dec	-0.121364444
62	0xbe2a224d	-0.16614647
63	0xbdaf88d0	-0.08571017

layer1.2.running_mean f4 [64]
0	0x3e43e0d3	0.19128732
1	0x3daee08b	0.08538922
2	0x3ad34d27	0.0016121016
3	0x3e31a885	0.17349441
4	0x3ec4f155	0.38465372
5	0x3e7d5b69	0.24741901
6	0x3e8c09d1	0.2735124
7	0x3e5f227b	0.21790497
8	0x3d78ae65	0.06071319
9	0x3d3fb009	0.04679874
10	0x3b0fa49f	0.002191819
11	0x3e935f7a	0.2878378
12	0x3e90acf6	0.2825696
13	0x3a57e052	0.00082350255
14	0x3e0898a0	0.13339472
15	0x3e7d9484	0.24763685
16	0x3e0cc18e	0.1374571
17	0x39f282b8	0.0004625523
18	0x3b37fe58	0.0028075185
19	0x0f033ad0	6.4701255e-30
20	0x3f12a5ea	0.57284415
21	0x3b0c8614	0.0021442221
22	0x3e837fda	0.2568348
23	0x3f0c8f07	0.5490574
24	0x3e8667f1	0.26251176
25	0x3e0913aa	0.13386407
26	0x3e897c28	0.26852536
27	0x3a8f775d	0.0010945607
28	0x31a9ac20	4.9381157e-09
29	0x3e53fd9a	0.2070221
30	0x3e87535c	0.26430786
31	0x3e819603	0.25309762
32	0x3df7dcf0	0.12102687
33	0x393f50d3	0.00018245289
34	0x3e25b1b8	0.16181076
35	0x3e8b1368	0.27163243
36	0x3dcc1475	0.09964839
37	0x39821fed	0.0002481932
38	0x3e6b798c	0.22995585
39	0x3e26320f	0.16230033
40	0x3a81de01	0.0009908081
41	0x3b341a90	0.0027481653
42	0x3ef997e7	0.48748705
43	0x3e1b6961	0.15176918
44	0x1392976c	3.7004895e-27
45	0x3e8ff655	0.28117624
46	0x3acfdbda	0.0015858368
47	0x3c835f1b	0.01603656
48	0x3c217208	0.009853847
49	0x3b00fc7c	0.0019681742
50	0x00000004	6e-45
51	0x3e89551e	0.26822752
52	0x3e46b4a8	0.19404852
53	0x3e3525d3	0.1769021
54	0x34d35bc3	3.9368578e-07
55	0x3e096b10	0.13419747
56	0x393bcbe4	0.00017909665
57	0x3e4ffb97	0.20310818
58	0x3e6b6f14	0.22991592
59	0x320396ba	7.659475e-09
60	0x3e7d7ec2	0.24755386
61	0x390d6122	0.00013482993
62	0x3b03bc5b	0.0020101282
63	0x39770a02	0.00023559484

layer1.2.running_var f4 [64]
0	0x3c367f43	0.01113874
1	0x3b8abed9	0.0042341766
2	0x39bab368	0.00035610353
3	0x3be94e05	0.0071198964
4	0x3d52c963	0.05146159
5	0x3c23fbad	0.010008735
6	0x3c993bfc	0.01870536
7	0x3aa73652	0.0012757278
8	0x3b4e5ef2	0.0031489697
9	0x3b966888	0.004590098
10	0x397e243b	0.00024236825
11	0x3baba06c	0.0052376296
12	0x3c6a39c1	0.014295996
13	0x38dadd75	0.000104362996
14	0x39f4b7bb	0.00046676197
15	0x3bdeace3	0.006795512
16	0x3c6760b2	0.014122175
17	0x373ae2ff	1.1139316e-05
18	0x38fbf185	0.00012013599
19	0x0caeeb0d	2.695041e-31
20	0x3d459e37	0.04824659
21	0x38c120d5	9.2090726e-05
22	0x3b25d6aa	0.0025304952
23	0x3d8bac17	0.06819933
24	0x3bf8d230	0.0075934157
25	0x3c0c3ae4	0.0085589625
26	0x3b89b446	0.0042023985
27	0x380f5886	3.41763e-05
28	0x2f3f2615	1.7384878e-10
29	0x3a8d73f7	0.0010792007
30	0x3ab3ac5c	0.0013707983
31	0x3d23fff4	0.040039018
32	0x3c641ad6	0.013922414
33	0x374e4ea9	1.2296871e-05
34	0x39f410f2	0.00046551932
35	0x3b13f725	0.002257773
36	0x3c37498e	0.01118697
37	0x367a11a1	3.7263164e-06
38	0x3d18b344	0.037280336
39	0x3cd3e03a	0.025863755
40	0x391a70a3	0.00014728545
41	0x39a7cd36	0.00032005616
42	0x3d13373f	0.03594136
43	0x3b05612d	0.002035211
44	0x115f6700	1.7623338e-28
45	0x3c913ead	0.017730081
46	0x392b8fff	0.00016361474
47	0x3a9d9a37	0.0012024109
48	0x3a27f999	0.00064077374
49	0x389c8f77	7.465382e-05
50	0x00000004	6e-45
51	0x3c39db00	0.011343718
52	0x3ac01751	0.0014655386
53	0x3ae6eb1c	0.0017617675
54	0x32d17cad	2.4387498e-08
55	0x39cfbcb5	0.00039622714
56	0x362a9d59	2.5423562e-06
57	0x3c957890	0.018245965
58	0x3b642a30	0.0034815185
59	0x2f8ea4cb	2.5946742e-10
60	0x3c8eea55	0.017445723
61	0x35d660d3	1.5972422e-06
62	0x39091d6b	0.00013076297
63	0x37d40d5f	2.5278596e-05

layer2.0.weight f4 [128, 64, 3, 3]
0	0x3c5c9e4c	0.013465475
1	0x3d7bbca2	0.06145919
2	0x3dafe631	0.085888274
3	0x3c9d5738	0.019206628
4	0x3c585d31	0.013205812
5	0x3d278222	0.04089559
6	0x3d5193b2	0.051166244
7	0x3bb40fd0	0.005495049
8	0x3d88de31	0.06683005
9	0xbb6eacf7	-0.0036419013
10	0xbd09059c	-0.033452615
11	0xbce22c30	-0.02760896
12	0x3c1f61d5	0.009727915
13	0x3ce7244f	0.028215555
14	0xbcdeb0a7	-0.027183844
15	0xbbb45152	-0.005502858
16	0x3c870b09	0.016484754
17	0x39cafa18	0.00038714777
18	0xbc84972c	-0.016185366
19	0xbd8249dd	-0.063617446
20	0xbcd52d2d	-0.026022518
21	0xbdaba3d3	-0.08380856
22	0xbd8cc963	-0.06874349
23	0x3c7210f5	0.014774551
24	0xbd5e9402	-0.05434037
25	0xbd74fc45	-0.059810895
26	0xbd131300	-0.03590679
27	0x3db427bf	0.087966435
28	0x3d86c171	0.06579865
29	0x3dc4d0ac	0.096101135
30	0x3dab43d0	0.083625436
31	0x3d994b27	0.07485037
32	0x3d9039fa	0.07042308
33	0x3d8fe736	0.07026522
34	0x3d08bca5	0.03338303
35	0x3b28e67c	0.0025772145
36	0x3d0e62dc	0.03476225
37	0x3d7ea56c	0.062169477
38	0x3c92ad2a	0.017904837
39	0x3d9db686	0.07700829
40	0x3c9ce747	0.01915325
41	0x3cf1a98c	0.029499792
42	0x3c904ded	0.017615283
43	0x3d662e9d	0.056196798
44	0x3d907b4d	0.07054768
45	0x3dceeebb	0.10104128
46	0x3de01136	0.10940783
47	0x3dc97423	0.098366044
48	0x3d55fdd9	0.05224404
49	0x3d622a4b	0.055216115
50	0x3d88f913	0.06688132
51	0x3c205708	0.009786375
52	0x3c441f4e	0.011970354
53	0x3d879205	0.06619648
54	0x3bda99cf	0.0066711674
55	0x3cd07d07	0.025450243
56	0x3d2cf9ec	0.04223053
57	0x3d1ef08b	0.03880362
58	0x3d81a755	0.06330744
59	0x3d9357b1	0.0719446
60	0xbbd47ce5	-0.006484615
61	0x3d173ff2	0.036926217
62	0x3d2316cb	0.03981666
63	0x3c8b4fe8	0.017005876
64	0xbc0e4089	-0.008682379
65	0x3d2dcac6	0.042429708
66	0xbd4cc594	-0.049993113
67	0xbd2f49a6	-0.042794846
68	0xbd63fdb3	-0.05566187
69	0xbd15add0	-0.036542714
70	0xbc9f3c1d	-0.019437844
71	0xbc03807d	-0.008026239
72	0xbcd885d4	-0.026431002
73	0xbba8efd3	-0.0051555424
74	0x3d64c0e0	0.055848002
75	0x3cf551f1	0.0299463
76	0x3c4b864c	0.012422156
77	0x3c584ef4	0.013202418
78	0xbba116a8	-0.004916031
79	0x3c87b2a3	0.016564673
80	0x3da35f34	0.07977143
81	0x3be97984	0.0071250815
82	0xbcdcfb8e	-0.02697542
83	0x3beae6cd	0.007168627
84	0x3ced4034	0.028961278
85	0xbc1a1a5a	-0.009405697
86	0x3c2dac47	0.010600156
87	0xbc87eb9d	-0.016591841
88	0xbd1380c4	-0.036011472
89	0x3c05b9a3	0.008161935
90	0xbc0cca86	-0.008593207
91	0xbaa2a557	-0.0012408894
92	0xbd16fa2e	-0.036859684
93	0xbc02b8e6	-0.007978654
94	0xbc9340ef	-0.017975299
95	0xbcc07d7e	-0.02349734
96	0x3c0ecff1	0.008716569
97	0xbcd3054b	-0.02575936
98	0x3b8008c0	0.003907293
99	0xbd398a2c	-0.045297787
100	0xbd88552f	-0.066568725
101	0xbccd57d7	-0.0250663
102	0xbd291df2	-0.041288324
103	0x3c9ebf05	0.019378195
104	0xbd1a6afa	-0.037699677
105	0x3d10111b	0.035172563
106	0xbbcf99b9	-0.006335464
107	0xbb1b79fc	-0.0023723831
108	0xbd12a249	-0.0357993
109	0xbb3ab86c	-0.0028491272
110	0x3bd35e9f	0.0064504887
111	0xbd5a5800	-0.05330658
112	0x3bbdeaf0	0.005795829
113	0x3c9b4970	0.018955916
114	0xbb1e5b70	-0.0024163388
115	0xbce8afaf	-0.028404085
116	0xbc218936	-0.009859374
117	0xbca09eb7	-0.019606931
118	0x3cd25840	0.025676847
119	0xbbbf127e	-0.005831062
120	0xbd215807	-0.03939059
121	0x3c25d670	0.010121927
122	0x3c8c7b0c	0.017148517
123	0xbd1de32c	-0.038546726
124	0x3c6f1cac	0.014594238
125	0x3ce4b1fe	0.027916905
126	0xbd2e66df	-0.042578574
127	0xbd69b42d	-0.057056595
128	0xbcc8adeb	-0.024496993
129	0xbd370735	-0.044684608
130	0xbd8ee213	-0.06976714
131	0xbd1426f5	-0.036169965
132	0x3d31599b	0.043298345
133	0x3d6c117a	0.057633854
134	0x3dce6045	0.10076956
135	0x3ba27a48	0.0049584247
136	0xbcccb7f8	-0.024990067
137	0x3cd412c8	0.025887862
138	0xbc370b90	-0.01117219
139	0xbbd8bff5	-0.00661468
140	0xbce8f49b	-0.02843695
141	0xbcf905ae	-0.030398216
142	0xbd5fe1ec	-0.054658815
143	0xbb3c7006	-0.0028753295
144	0x3d8ecaf6	0.069723055
145	0x3d17698e	0.0369659
146	0x3d619d24	0.0550815
147	0x3c2293ff	0.00992298
148	0x3bb6f1a2	0.005583004
149	0x3c7705fe	0.015077112
150	0x3d4f7996	0.050653063
151	0x3caba5f3	0.020953154
152	0x3d69963a	0.057028033
153	0x3c0ab7a6	0.008466637
154	0xbd2b2028	-0.041778713
155	0xbd045939	-0.03231165
156	0x3d7521cd	0.059846688
157	0xbb6746cb	-0.0035289999
158	0x3d171839	0.036888335
159	0xbda5b5d4	-0.080913216
160	0xbd9f27fb	-0.077712975
161	0xbd9d5ee6	-0.07684116
162	0xbd73beb1	-0.05950803
163	0xbd24bded	-0.04022019
164	0xbd04db51	-0.03243572
165	0x3bc46ddb	0.005994541
166	0xbcd1d6c2	-0.0256151
167	0xbcf9f886	-0.030514013
168	0xbc82cf90	-0.015968114
169	0xbc93a641	-0.018023612
170	0xbc327db4	-0.010894228
171	0x3d029332	0.031878658
172	0x3bea54f5	0.007151241
173	0x3c85e587	0.016344799
174	0x3cf7c597	0.030245585
175	0x3d496f52	0.04917843
176	0x3d87f0ce	0.06637727
177	0x3cc46804	0.02397538
178	0x3d49c84e	0.04926329
179	0x3d090543	0.033452284
180	0x3d3bb502	0.04582692
181	0x3d92f9a9	0.07176525
182	0x3d7d3b57	0.06182417
183	0x3cb2ac64	0.021810718
184	0x3d3f09f8	0.046640366
185	0x3ca95c25	0.02067382
186	0x3c40db35	0.011771013
187	0x3c94a9ec	0.018147431
188	0x3d6f54a2	0.05843032
189	0xbd234707	-0.03986266
190	0x3c0f239e	0.008736519
191	0x3b50c0e7	0.003185326
192	0x3d3aff84	0.045653835
193	0xbc712ece	-0.014720632
194	0x3c82e6da	0.01597922
195	0xbbe0c821	-0.0068597947
196	0xbd51ad75	-0.051190812
197	0xbc043e8c	-0.008071553
198	0x3bb24eae	0.0054415083
199	0xbd6b6df8	-0.05747792
200	0xbd7ff844	-0.062492624
201	0xbb51915c	-0.003197751
202	0xbc9943d2	-0.018709097
203	0xbc7e6bcb	-0.0155286295
204	0xbcb689ec	-0.022282563
205	0xbd6dc071	-0.058044855
206	0xbd2e569f	-0.042563077
207	0x3c7db98e	0.015486134
208	0xbb9c3b30	-0.004767798
209	0xbcffbcde	-0.031217989
210	0xbc6a5907	-0.014303452
211	0xbd2bd30c	-0.041949317
212	0xbb48d829	-0.003064642
213	0xbbf66f9a	-0.007520628
214	0xbcc79317	-0.02436213
215	0xbcb97e89	-0.022643344
216	0x3d0f0aaf	0.034922298
217	0x3cd859e7	0.026410056
218	0xb9d79455	-0.00041118512
219	0xbb36f8c4	-0.0027919272
220	0x3cca4df0	0.024695367
221	0x3bd47e65	0.006484794
222	0xbc3b0435	-0.011414577
223	0xbcd6f1cc	-0.026238345
224	0x3c86f17e	0.016472574
225	0xbd573da0	-0.052549005
226	0xbd794b4b	-0.06086282
227	0xbc2c3d00	-0.01051259
228	0xbceff59b	-0.029291919
229	0xbd76da4e	-0.060266785
230	0x3bd93a13	0.0066292374
231	0xbd667bba	-0.05627034
232	0x3c883389	0.016626136
233	0xbce516c7	-0.027964963
234	0xbcb11105	-0.02161456
235	0x3d3d0a7b	0.046152573
236	0x3c403ba3	0.0117329685
237	0x3ced762f	0.028987018
238	0xbc6beee8	-0.014400221
239	0x3bb24d1c	0.005441321
240	0xbd0db22e	-0.034593754
241	0xbcba8f69	-0.022773461
242	0x3a70fc51	0.00091928715
243	0xbca4e426	-0.02012832
244	0x3d03be8f	0.032164153
245	0xbd15974a	-0.036521234
246	0x3c98fffd	0.018676752
247	0xbd1372c7	-0.035998132
248	0xbd078819	-0.033088777
249	0x3c2825ca	0.010262916
250	0xbcd9d4ff	-0.026590822
251	0xbb80d82b	-0.003932019
252	0x3b016f97	0.001975035
253	0xbd7798da	-0.060448505
254	0xbd8552d4	-0.06509939
255	0xbd847081	-0.06466771

layer2.0.bias f4 [128]
0	0x3d2db31e	0.042407148
1	0xbe3de8a9	-0.18545784
2	0x3c463b76	0.0120991375
3	0x3cc6d4f6	0.02427147
4	0xbd845d09	-0.064630575
5	0x3da5ae1e	0.08089851
6	0xbd4ef27a	-0.050524212
7	0x3d11a367	0.035556223
8	0xbe021766	-0.12704238
9	0xbba0fd44	-0.004913004
10	0xbdb5315f	-0.088473074
11	0xbd9f37a3	-0.07774284
12	0xbcb9a447	-0.022661341
13	0xbacacd30	-0.0015472528
14	0xbcb5aaa1	-0.022176089
15	0xbdf34d1c	-0.11879942
16	0x3da129f2	0.078693286
17	0xba762c74	-0.00093907793
18	0x3cdb3875	0.02676032
19	0xbdca3202	-0.098728195
20	0xbd9e3c0e	-0.07726298
21	0x3cc703ef	0.024293868
22	0xbdb067d7	-0.08613556
23	0x3d2d0a03	0.042245876
24	0x3a07aabe	0.0005175284
25	0xbd1b36a1	-0.037893895
26	0x3bfc33a1	0.0076965843
27	0xbca85d2c	-0.02055224
28	0xbd83963b	-0.064251386
29	0xbe31c3e9	-0.1735989
30	0x3dd786ce	0.10523759
31	0x3c3a19b3	0.011358666
32	0x3d0d3bb3	0.03448076
33	0xbdb1903d	-0.086700894
34	0x3bff3194	0.0077878926
35	0xbd4ac198	-0.04950103
36	0x3d55ee19	0.05222902
37	0x3d7b358f	0.061330374
38	0xbd84d9fb	-0.06486889
39	0x3cbbdf44	0.02293361
40	0xbce4e7a8	-0.027942494
41	0xbe246815	-0.16055329
42	0xbe81a78d	-0.25323144
43	0x3d3cec1e	0.046123616
44	0xbce7862c	-0.02826222
45	0xbad6cc4b	-0.0016387788
46	0x3dd2b8fd	0.1028919
47	0xb9cf49dc	-0.00039537146
48	0xbcd9d687	-0.026591552
49	0xbd612886	-0.054970287
50	0x3d76b21c	0.060228452
51	0xbbfdc7d9	-0.007744771
52	0x3d0f6ff9	0.035018895
53	0xbc82a1c9	-0.015946286
54	0x3d5d07ff	0.053962704
55	0x3d25f40a	0.040515937
56	0x3d7e2f18	0.06205663
57	0x3db4247d	0.08796022
58	0x3d0e999d	0.034814466
59	0xbd2f45f6	-0.04279133
60	0xbe0f0fc8	-0.13970864
61	0x3cf67338	0.030084237
62	0x3d09462d	0.03351419
63	0x3c3d2317	0.011544011
64	0xbd874c04	-0.06606296
65	0xbe0454b6	-0.1292294
66	0xbbef3e89	-0.007301156
67	0xbdc54d36	-0.096338674
68	0x3c9508f6	0.01819275
69	0x3d94a161	0.07257343
70	0xbd813cdf	-0.06310438
71	0xbc79ac61	-0.015238852
72	0xbd2a721e	-0.041612737
73	0xbe009fc5	-0.12560947
74	0x3cc7b2f0	0.024377316
75	0xbd025f24	-0.031829014
76	0x3beb9fe7	0.0071906927
77	0x3c09dea1	0.008414895
78	0xbdac730a	-0.084203795
79	0xbc50997e	-0.012731908
80	0xbddff4e6	-0.109353825
81	0xbe377be5	-0.17918356
82	0x3c2522a0	0.010079056
83	0xbcab0643	-0.02087701
84	0xbe43c5c1	-0.19118406
85	0xbd9c485a	-0.076309875
86	0xbcedc3ce	-0.029024031
87	0xbe080150	-0.1328175
88	0xbe000fa9	-0.12505974
89	0xbdff11f2	-0.12454595
90	0xbd7fe445	-0.062473554
91	0xb7f8ce19	-2.9659876e-05
92	0x3c3c94fe	0.011510132
93	0x3cbc7f93	0.02301005
94	0xbce9ee98	-0.028556153
95	0x3d8dbe1c	0.06921026
96	0xbe29bba7	-0.1657549
97	0xbbfc723d	-0.007704048
98	0x3c3d303f	0.011547147
99	0x3cf1027d	0.029420132
100	0xbd89c3b3	-0.0672678
101	0x3bdb81b0	0.0066988096
102	0xbcb3b712	-0.02193788
103	0xbdcf190b	-0.101121984
104	0xbcac4848	-0.02103056
105	0x3d856377	0.06513112
106	0x3e11ae72	0.14226702
107	0xbe888406	-0.26663226
108	0xbe58aaac	-0.21158856
109	0x3be3cc6b	0.0069518588
110	0xbda8b5b7	-0.08237784
111	0xbe2ecb4a	-0.17069736
112	0x3d3f4ace	0.0467022
113	0xbea48250	-0.3213067
114	0xbd0d3451	-0.03447372
115	0x39ec6d0a	0.00045094668
116	0x3d64cff2	0.055862375
117	0x3d1cea3d	0.038309325
118	0xbd6718d4	-0.056420162
119	0xbe21f729	-0.1581694
120	0xbd19924f	-0.037493046
121	0xbdebb95d	-0.115099646
122	0xbe2bf593	-0.16792898
123	0xbd00b86a	-0.03142587
124	0xbdf4d009	-0.11953742
125	0xbdc5b33c	-0.09653327
126	0xbd0e0725	-0.034674782
127	0xbe1e9f68	-0.15490496

layer2.2.weight f4 [128]
0	0x3f6b6b4a	0.91960585
1	0x3f6d2517	0.9263472
2	0x3f667680	0.90024567
3	0x3f6e4394	0.93071866
4	0x3f7aef05	0.98020965
5	0x3f6a30e4	0.9148085
6	0x3f6a4dc7	0.9152493
7	0x3f70762c	0.93930316
8	0x3f4fee43	0.81222934
9	0x3f6b150f	0.9182901
10	0x3f5b3447	0.85626644
11	0x3f633040	0.887455
12	0x3f6ecf7e	0.9328536
13	0x3f584878	0.8448558
14	0x3f6bb9fd	0.9208067
15	0x3f8f296b	1.1184515
16	0x3f737656	0.9510244
17	0x3f71fd22	0.94526875
18	0x3f676c14	0.9039929
19	0x3f6080a7	0.8769631
20	0x3f5e8a8f	0.86930174
21	0x3f689821	0.9085713
22	0x3f60a590	0.8775263
23	0x3f682fb7	0.9069781
24	0x3f526122	0.8217946
25	0x3f649513	0.8928997
26	0x3f6e09d1	0.9298373
27	0x3f5e7644	0.8689921
28	0x3f62940c	0.8850715
29	0x3f4e0c3c	0.8048742
30	0x3f8b24c3	1.0870594
31	0x3f67457a	0.9034039
32	0x3f653bfc	0.89544654
33	0x3f6bc155	0.92091876
34	0x3f527a5e	0.8221797
35	0x3f602de6	0.87570035
36	0x3f5d26f5	0.8638757
37	0x3f939a0b	1.1531385
38	0x3f71ca42	0.94449246
39	0x3f6d9239	0.92801243
40	0x3f5ad688	0.854836
41	0x3f638d6d	0.88887674
42	0x3f97afd2	1.1850531
43	0x3f652416	0.8950819
44	0x3f58f2e1	0.84745604
45	0x3f579380	0.8420944
46	0x3f5aadce	0.85421455
47	0x3f696b4a	0.91179335
48	0x3f67aedd	0.90501195
49	0x3f9305ac	1.1486106
50	0x3f6b3150	0.9187212
51	0x3f6cf203	0.9255678
52	0x3f6eec6e	0.93329513
53	0x3f6fa2d2	0.9360782
54	0x3f6bda72	0.92130196
55	0x3f6d5fc7	0.9272427
56	0x3f6c89e2	0.9239789
57	0x3f72aac4	0.9479182
58	0x3f811ea2	1.0087473
59	0x3f5004ea	0.812575
60	0x3f76f977	0.96474403
61	0x3f886627	1.0656174
62	0x3f6f4b57	0.93474334
63	0x3f5939fc	0.848541
64	0x3f58e9c7	0.84731716
65	0x3f609096	0.8772062
66	0x3f63f75d	0.8904932
67	0x3f67bd7c	0.90523505
68	0x3f6508dd	0.8946665
69	0x3f70d17e	0.9406966
70	0x3f66137b	0.89873475
71	0x3f69c6d4	0.9131901
72	0x3f596562	0.8492032
73	0x3f5925f0	0.84823513
74	0x3f5f64e4	0.8726332
75	0x3f72fa14	0.9491284
76	0x3f4fdca1	0.8119603
77	0x3f6640bb	0.8994252
78	0x3f65e4bb	0.8980214
79	0x3f5512f9	0.83232075
80	0x3f631d7d	0.8871687
81	0x3f6a0498	0.9141326
82	0x3f599896	0.8499845
83	0x3f728cca	0.9474608
84	0x3f86f9e0	1.0545006
85	0x3f674fb4	0.9035599
86	0x3f67e918	0.9059005
87	0x3f5b8c04	0.8576052
88	0x3f646b7b	0.892265
89	0x3f5a9c3b	0.8539464
90	0x3f5ef3c5	0.8709071
91	0x3f718424	0.94342256
92	0x3f652435	0.8950837
93	0x3f6d72ab	0.92753094
94	0x3f607e9e	0.876932
95	0x3f6818f9	0.90663105
96	0x3f6067c6	0.87658346
97	0x3f5a428c	0.8525779
98	0x3f66acd3	0.9010746
99	0x3f55875b	0.8340966
100	0x3f5ab65b	0.854345
101	0x3f637123	0.8884451
102	0x3f630de2	0.8869306
103	0x3f6276ca	0.8846251
104	0x3f64a204	0.89309716
105	0x3f6c0b6f	0.92204946
106	0x3f9b4679	1.2130882
107	0x3f9f4923	1.2444195
108	0x3f9618f6	1.1726367
109	0x3f4d233c	0.8013189
110	0x3f5fd8ba	0.87440073
111	0x3f96540f	1.1744403
112	0x3f6bde04	0.92135644
113	0x3f92e826	1.1477096
114	0x3f646b4e	0.89226234
115	0x3f61ee50	0.8825426
116	0x3f608af7	0.87712044
117	0x3f6c22a5	0.92240363
118	0x3f7480dc	0.95509124
119	0x3f808fc3	1.0043873
120	0x3f7d4a5e	0.989416
121	0x3f535f8e	0.8256768
122	0x3f8199a7	1.0125016
123	0x3f535ca2	0.8256322
124	0x3f6f07e3	0.9337141
125	0x3f5cac73	0.86200637
126	0x3f59b063	0.8503477
127	0x3f8fa013	1.1220726

layer2.2.bias f4 [128]
0	0x3c0bf789	0.008542904
1	0x3e86eca6	0.26352423
2	0x3d1dc34b	0.038516324
3	0x3e8603af	0.26174685
4	0xbec5483c	-0.38531673
5	0x3caab9b1	0.020840498
6	0xbddcaca1	-0.10775114
7	0xbc4ee4e8	-0.012627818
8	0xbe9ef8b2	-0.31049114
9	0xbe78cb76	-0.24296364
10	0x3e01dfa6	0.12682971
11	0x3ec952cf	0.3932099
12	0x3de65de6	0.112483785
13	0xbb93e7b8	-0.004513707
14	0xbd5b5762	-0.05355013
15	0xbe725a9d	-0.23667379
16	0xbe20a6e9	-0.15688671
17	0xbd9caba3	-0.076499246
18	0x3e11f29d	0.14252706
19	0x3e36582a	0.1780707
20	0xbe9f6964	-0.31135094
21	0xbdf3b7f0	-0.11900318
22	0xbef61d9f	-0.48069474
23	0x3d5c56dc	0.053793773
24	0xbdbf2a0f	-0.09334194
25	0xbe5aa064	-0.21350247
26	0xbe70bd11	-0.23509623
27	0xbd8d3bd6	-0.068961784
28	0xbe549928	-0.2076155
29	0xbec4ffeb	-0.384765
30	0xbd7694eb	-0.060200613
31	0x3e01763b	0.12642758
32	0xbe2ec2e0	-0.17066526
33	0x3e0352e0	0.12824583
34	0x3e3e92c1	0.1861067
35	0x3e26dbf1	0.16294838
36	0x3b99df44	0.004695805
37	0xbd9b91fe	-0.07596205
38	0x3e8a57d4	0.27020133
39	0x3e79ee86	0.24407396
40	0x3e84c0c6	0.25928324
41	0x3ebb7c77	0.36618397
42	0xbd6e48c6	-0.05817487
43	0x3e859e56	0.26097363
44	0x3e849188	0.25892282
45	0xbe39aaca	-0.18131557
46	0xbe5a33a1	-0.21308757
47	0xbe064fda	-0.13116398
48	0xbe554043	-0.20825295
49	0xbeaea3a3	-0.3410922
50	0x3dea443c	0.11438796
51	0x3dccda47	0.100025706
52	0x3d9f99b0	0.077929854
53	0xbe4c856e	-0.19972774
54	0x3e194aeb	0.14969985
55	0x3e000ac7	0.12504111
56	0xbd7d1bec	-0.061794207
57	0x3db2a94a	0.087236956
58	0xbdee598a	-0.11638172
59	0x3e892874	0.26788676
60	0x3d542d6d	0.051801134
61	0xbe6258de	-0.22104213
62	0xbd755bf2	-0.05990214
63	0x3c004afe	0.0078303795
64	0x3e1fb6e3	0.1559711
65	0xbeb371cd	-0.3504776
66	0xbe0a59b0	-0.13510776
67	0x3e509bfb	0.20372002
68	0x3d9c65ca	0.07636602
69	0x3d1afb97	0.03783759
70	0xbdee009a	-0.116212085
71	0x3e68919c	0.22711796
72	0x3bd0bcc9	0.006370161
73	0xbe121115	-0.14264329
74	0xbe76c5a5	-0.24098833
75	0xbe145826	-0.14486751
76	0xbcb531ac	-0.022118412
77	0xbe50bd80	-0.20384789
78	0xbe944453	-0.28958377
79	0x3d9e8495	0.07740132
80	0x3dab6814	0.08369461
81	0xbd20f632	-0.03929729
82	0xbf057f9a	-0.5214783
83	0x3e226f44	0.15862757
84	0xbe23f0df	-0.16009854
85	0xbe170357	-0.14747368
86	0x3da51948	0.08061463
87	0x3dce0dee	0.100612506
88	0x3e55a868	0.20865023
89	0x3ed06ded	0.40708867
90	0xbcf8f910	-0.0303922
91	0xbd9bd877	-0.07609647
92	0xbd9ab40c	-0.075538725
93	0xbe211527	-0.15730725
94	0xbdabd112	-0.08389486
95	0xbe512dd9	-0.20427646
96	0xbc9bf8af	-0.01903948
97	0x3e04c6b7	0.12966429
98	0xbd61e7c4	-0.05515267
99	0x3dd8deab	0.105893455
100	0x3d837959	0.064196296
101	0xbcd95066	-0.026527595
102	0xbda5ddb0	-0.08098924
103	0x3e78874c	0.24270362
104	0x3e2fca8e	0.17167112
105	0x3e249716	0.1607326
106	0xbc90d2d2	-0.017678652
107	0xbe2c7e11	-0.16844966
108	0xbe59104b	-0.21197622
109	0x3e59f333	0.2128418
110	0xbe3fe9ec	-0.18741578
111	0xbe892c56	-0.26791638
112	0xbe4a67f6	-0.1976622
113	0xbd3509db	-0.044198852
114	0xbda78e34	-0.0818142
115	0x3de5e83c	0.11225936
116	0xbda31475	-0.07962886
117	0xbcf6d611	-0.030131372
118	0xbe7139b1	-0.23557164
119	0xbeb15070	-0.3463168
120	0x3e87f61f	0.26554963
121	0xbcd27aa8	-0.025693253
122	0xbe8269fe	-0.2547149
123	0xbcc45421	-0.023965897
124	0x3e754b7c	0.23954576
125	0x3ea646e5	0.32475963
126	0xbd3c6450	-0.045994103
127	0xbed28aab	-0.4112142

layer2.2.running_mean f4 [128]
0	0x40391ee0	2.8925095
1	0x3d571520	0.05251038
2	0x401d4782	2.4574895
3	0x40024abb	2.0358112
4	0x3c3e900e	0.011631025
5	0x405d6d4f	3.4597967
6	0x3ffe64aa	1.987447
7	0x40384652	2.879292
8	0x3e66eb67	0.22550736
9	0x3f985291	1.1900197
10	0x3ef92427	0.48660395
11	0x3f94369f	1.1579169
12	0x3de094f0	0.109659076
13	0x3fc173e0	1.5113487
14	0x4004060d	2.0628693
15	0x3c0bedf6	0.008540621
16	0x401ab808	2.4174824
17	0x401faeb5	2.4950383
18	0x40504a33	3.2545288
19	0x3e422860	0.18960714
20	0x3edce941	0.4314671
21	0x40424dfa	3.0360093
22	0x3cf6c734	0.030124284
23	0x402c97c1	2.6967623
24	0x3f6ebebc	0.9325979
25	0x3fca62ac	1.5811362
26	0x3faae16d	1.3350044
27	0x3f8e3ecc	1.1112914
28	0x3f36fe73	0.7148201
29	0x3c8bfc27	0.017088009
30	0x400a4ec9	2.1610587
31	0x404d2664	3.2054682
32	0x400255ca	2.0364861
33	0x3efb0994	0.49030745
34	0x402f321e	2.737434
35	0x40011aac	2.017253
36	0x402ff4ec	2.7493238
37	0x3ff3f597	1.9059323
38	0x3e03d6da	0.12874928
39	0x3e5c094c	0.21487921
40	0x3f8a3b68	1.0799379
41	0x3e02bc3c	0.12767118
42	0x3ca90be1	0.020635547
43	0x40182e67	2.3778322
44	0x3ffff4d6	1.9996593
45	0x3f8a0072	1.0781386
46	0x4086849a	4.2036867
47	0x3f5f74dc	0.8728769
48	0x3fdfacb1	1.7474576
49	0x3e3f71f5	0.18695815
50	0x403e4fcb	2.9736202
51	0x3fb88904	1.4416814
52	0x400f46d5	2.2386982
53	0x3e809fbc	0.25121868
54	0x40633692	3.5502057
55	0x40302130	2.7520256
56	0x4037b158	2.8701992
57	0x4083c077	4.1172442
58	0x3e00c81f	0.1257634
59	0x3f801686	1.0006874
60	0x3f262f75	0.64916164
61	0x3ff02be3	1.8763393
62	0x3ffcbdf5	1.974547
63	0x3fffa114	1.9971032
64	0x3f0e2e64	0.55539536
65	0x3ed455cb	0.41471705
66	0x40026ee6	2.0380187
67	0x3f0ee331	0.55815417
68	0x4029f426	2.6555266
69	0x40493928	3.1441135
70	0x3f7ca17f	0.98683923
71	0x3ec885de	0.39164633
72	0x3e2cdc3f	0.16880892
73	0x3df33975	0.118761934
74	0x3faf9886	1.3718421
75	0x40060e9a	2.0946412
76	0x3fe644c0	1.7989731
77	0x3f6323b9	0.88726383
78	0x3ed8bb91	0.42330602
79	0x3f733751	0.9500628
80	0x3e0b4c3a	0.13603297
81	0x3dca977c	0.098921746
82	0x3fb296e7	1.3952302
83	0x3ecd1a2e	0.40059036
84	0x3d04006f	0.032226976
85	0x3b2c24b4	0.0026266994
86	0x3d4cf8c3	0.050041925
87	0x3b1ea746	0.002420859
88	0x3f1aaed2	0.60423005
89	0x3ebc5cf4	0.36789668
90	0x3fe06b97	1.7532834
91	0x40060a1e	2.0943675
92	0x4005ac7c	2.0886526
93	0x40165044	2.348649
94	0x3f9b1220	1.2114906
95	0x4059176a	3.392054
96	0x3d4c6647	0.049902227
97	0x4038ee82	2.8895574
98	0x3feaef0d	1.8354203
99	0x401e7773	2.4760406
100	0x3f91453d	1.1349255
101	0x403198cb	2.7749507
102	0x3fcbccb9	1.5921851
103	0x3f1fb0aa	0.6237894
104	0x4045462e	3.0824084
105	0x4060d256	3.512838
106	0x4085f12a	4.185689
107	0x3c354d60	0.011065811
108	0x3d342504	0.043980613
109	0x3f8e56e1	1.1120263
110	0x3e09e3d1	0.13465811
111	0x3ce25596	0.027628701
112	0x3fe972d6	1.823817
113	0x3c569d6b	0.013099055
114	0x3fca54a6	1.5807083
115	0x40515242	3.2706456
116	0x4009ac27	2.1511323
117	0x40251b5d	2.5797951
118	0x3ee63061	0.44958785
119	0x3e4ed458	0.2019819
120	0x3ddf3608	0.108989775
121	0x3ccd6419	0.025072144
122	0x3d337995	0.04381712
123	0x3effcf72	0.49962956
124	0x3c6dfd9a	0.014525795
125	0x3e0efb5c	0.13963073
126	0x3f6d5b29	0.92717224
127	0x3ceeb17f	0.029137371

layer2.2.running_var f4 [128]
0	0x412b1d1a	10.694605
1	0x3e8a7f0d	0.27050057
2	0x412bde00	10.741699
3	0x40e71a90	7.2219925
4	0x3d00671d	0.031348336
5	0x41459182	12.348024
6	0x410585d1	8.34517
7	0x4123dbea	10.24119
8	0x3f0160b8	0.50538206
9	0x4084a8b2	4.1455927
10	0x40037371	2.053921
11	0x408e10ff	4.4395747
12	0x3e6c3b8c	0.2306959
13	0x40b48a41	5.6418767
14	0x41171c15	9.444356
15	0x3cce64cc	0.025194548
16	0x410c0bdc	8.752895
17	0x411b0ced	9.690656
18	0x4157b182	13.480837
19	0x401c912c	2.4463606
20	0x401463d3	2.3185928
21	0x413b8497	11.719871
22	0x3dd1007f	0.10205173
23	0x413f2d1b	11.948512
24	0x3fce63d7	1.6124219
25	0x40dd3f4b	6.913976
26	0x40650b89	3.578829
27	0x40413b16	3.0192313
28	0x40828b31	4.079491
29	0x3d192fbd	0.037399042
30	0x3f4dd3ba	0.80401194
31	0x418adbb0	17.35727
32	0x40c6c5dc	6.2116528
33	0x3fe11c96	1.7586849
34	0x414d9685	12.849248
35	0x4124f0ad	10.308759
36	0x412a3825	10.638707
37	0x3f3317b7	0.6995806
38	0x3efe3faa	0.49657947
39	0x3f58e275	0.84720546
40	0x40c44f50	6.1346817
41	0x3e96f6a6	0.29485053
42	0x3e08a37a	0.13343611
43	0x41201258	10.004478
44	0x40f97e34	7.7966557
45	0x405fe2aa	3.4982095
46	0x41501887	13.005988
47	0x403328bb	2.799361
48	0x40d07ee0	6.5154877
49	0x3fe5fb4b	1.7967314
50	0x41259846	10.349676
51	0x40b5a291	5.6760945
52	0x41135cae	9.210127
53	0x3f1f19cf	0.62148756
54	0x4180c558	16.09636
55	0x413f8d7d	11.972043
56	0x4154147f	13.255004
57	0x4181006c	16.125206
58	0x3eb71fee	0.35766548
59	0x40815960	4.04216
60	0x4022d7b2	2.544415
61	0x3f69aa61	0.912756
62	0x40e8a2ab	7.269857
63	0x41306b36	11.026175
64	0x3fcaae0e	1.5834367
65	0x3fa7f8e0	1.3122826
66	0x41011c0a	8.069345
67	0x40177832	2.3667111
68	0x413ea031	11.914109
69	0x41483f1d	12.5154085
70	0x4067dc46	3.6228194
71	0x3fc14806	1.5100105
72	0x3f664ca2	0.8996068
73	0x3f6ab0b2	0.91675866
74	0x409332ec	4.599966
75	0x4115dea5	9.366857
76	0x40f81b6f	7.753349
77	0x40103518	2.2532406
78	0x3fa54c55	1.291392
79	0x40452f04	3.0809946
80	0x3ea73c25	0.32663074
81	0x3e5fae6b	0.21843879
82	0x40a3a6ae	5.1140966
83	0x3fc63bfb	1.5487055
84	0x3dec4169	0.115359135
85	0x3c61ae04	0.013774399
86	0x3e81f368	0.25381017
87	0x3c0973ce	0.008389426
88	0x3ffc68a2	1.9719431
89	0x3f9871a9	1.1909686
90	0x40fc86ba	7.891446
91	0x40dd0179	6.90643
92	0x412090cf	10.035354
93	0x4144d6e8	12.302467
94	0x40729d02	3.790833
95	0x410a439c	8.641506
96	0x3e0ce270	0.13758254
97	0x4161af3f	14.105285
98	0x40ce70ca	6.451268
99	0x4113dd68	9.241554
100	0x40983641	4.756623
101	0x4148cbbe	12.549742
102	0x40b70684	5.7195454
103	0x40025e49	2.0370047
104	0x418bd706	17.479992
105	0x417b4129	15.703408
106	0x3f39ef68	0.7263093
107	0x3d2ef1ec	0.042711183
108	0x3e17b474	0.14814931
109	0x40a332ca	5.09995
110	0x3f05876a	0.5215975
111	0x3da2cea0	0.07949567
112	0x40d637a2	6.694291
113	0x3da56755	0.0807635
114	0x40e36539	7.1061063
115	0x41907783	18.058355
116	0x40d69800	6.7060547
117	0x41416676	12.087515
118	0x3fb5c374	1.4200273
119	0x3f06281d	0.5240496
120	0x3e8b2645	0.27177635
121	0x3da35d2d	0.07976756
122	0x3e12a4c7	0.1432067
123	0x3ff8ce2e	1.9437921
124	0x3d715161	0.0589155
125	0x3f524ade	0.8214549
126	0x403b31db	2.924918
127	0x3dcd58fa	0.100267366

layer3.0.weight f4 [64, 128, 3, 3]
0	0xbc033fec	-0.008010846
1	0x3c0830e7	0.0083124405
2	0x3bba7351	0.0056900163
3	0xbb87956c	-0.0041376855
4	0x3c35a990	0.01108779
5	0x39919c46	0.00027772988
6	0x3c7716be	0.015081106
7	0x3d141fd2	0.03616316
8	0x3d18acd4	0.037274197
9	0xbccb2873	-0.024799561
10	0xbb852869	-0.004063655
11	0xbd15acd9	-0.036541793
12	0x3d33697b	0.043801766
13	0x3d7354a1	0.05940688
14	0x3d62f02e	0.055404834
15	0xbb637c42	-0.0034711515
16	0x3c9a47d3	0.018833077
17	0xbb7cde32	-0.0038584587
18	0x3c865c42	0.016401414
19	0xbc82004f	-0.015869288
20	0x3cbe7bfd	0.023252482
21	0x3d254b20	0.040354848
22	0xbc0c1510	-0.008549944
23	0x3c204d77	0.009784094
24	0xbbffa5e0	-0.0078017563
25	0x3c47035f	0.0121468
26	0x3d28efc5	0.041244287
27	0x3c8f31af	0.017479746
28	0xbd160de0	-0.036634326
29	0x3b3ba593	0.0028632625
30	0xbcad821b	-0.021180203
31	0x3c704c63	0.0146666495
32	0x3c0fd769	0.008779385
33	0x3d1c95ae	0.038228683
34	0x3cbbb158	0.022911713
35	0x3ce109e1	0.027470531
36	0x3df0f115	0.11764733
37	0x3de82c78	0.11336607
38	0x3e0b9973	0.13632755
39	0x3dda09e3	0.10646417
40	0x3e23ed0c	0.16008395
41	0x3e2056e6	0.15658149
42	0x3e0b72c1	0.13617994
43	0x3e2eef60	0.17083502
44	0x3e11f010	0.14251733
45	0xb9611649	-0.00021465974
46	0x3c1c251e	0.009530334
47	0x3b0669cd	0.002050984
48	0x3cb7817d	0.022400612
49	0x3c337ed2	0.010955529
50	0x3cf03b80	0.029325247
51	0x3c14cd4d	0.009082151
52	0x3c867893	0.016414916
53	0x3d1bcb29	0.038035545
54	0x3b7fd17e	0.003903478
55	0x3c7b2d6a	0.015330652
56	0xbc20addd	-0.009807077
57	0x3d1baad7	0.038004722
58	0x3c81b7d6	0.01583473
59	0x3cf3115e	0.029671367
60	0x3d7b1c04	0.061306015
61	0x3d4a9ff5	0.049468953
62	0x3d24d720	0.04024422
63	0x3c31f089	0.010860571
64	0x3c92643f	0.017870067
65	0x3c8c8d6d	0.01715728
66	0x3ba616f6	0.005068655
67	0x3ac484bb	0.001499317
68	0xbd18cf39	-0.037306998
69	0x3bef003d	0.0072937296
70	0x3ba5ceaf	0.005060039
71	0x3b243ca7	0.0025060566
72	0x3cd3bb34	0.025846101
73	0x3d176444	0.036960855
74	0x3da0be35	0.07848779
75	0x3d4e3718	0.05034551
76	0x3d480fd1	0.04884321
77	0x3daa0c27	0.08303099
78	0x3d36926b	0.04457323
79	0x3d3e13aa	0.04640547
80	0x3da971c9	0.08273656
81	0xbcecafe7	-0.02889247
82	0xbc4b6f9e	-0.012416748
83	0x3cd7c546	0.026339184
84	0xbb883234	-0.0041563753
85	0x3c76a91f	0.01505497
86	0x3cec18a6	0.028820347
87	0xbc95a76b	-0.018268308
88	0x3d016493	0.031590056
89	0x3ca80b0a	0.020513076
90	0xbcd6b362	-0.026208583
91	0xbcbc70b6	-0.023002964
92	0xbcd6a302	-0.026200775
93	0xbc6b49d1	-0.014360861
94	0xbb4a9f47	-0.003091769
95	0xbd3e20e2	-0.04641808
96	0xbc9614e4	-0.018320508
97	0xbce53c47	-0.027982844
98	0xbd21e7d5	-0.039527733
99	0xbd2668ee	-0.040627412
100	0xbd30b3cd	-0.04314022
101	0xbba14661	-0.00492172
102	0xbd56dce8	-0.052456766
103	0xbd4928ca	-0.049111165
104	0xbd44a80a	-0.048011817
105	0xbd39eecb	-0.045393746
106	0xbcc1244c	-0.023576878
107	0xbceedfe2	-0.02915949
108	0x3cd8e5fb	0.02647685
109	0x3ac3306e	0.0014891753
110	0xbcfa78ad	-0.03057512
111	0xbd123d22	-0.035702832
112	0xbd098f7c	-0.033584103
113	0xbd1337c4	-0.035941854
114	0xbbb327d5	-0.005467395
115	0xbc11c144	-0.008896176
116	0xbcef7041	-0.029228332
117	0xbba8f486	-0.0051561026
118	0x3b8ec78e	0.004357285
119	0x3bde4f99	0.006784391
120	0xbbda861e	-0.00666882
121	0xbd2890e3	-0.0411538
122	0xbc3fd3eb	-0.01170824
123	0x3b00dfdf	0.0019664688
124	0xbbd61709	-0.0065335077
125	0xbc00e7a0	-0.007867724
126	0x3d290378	0.041263074
127	0xbc61132c	-0.013737481
128	0x3c29153f	0.010320007
129	0x3d0408cd	0.032234956
130	0x3cb5ed35	0.022207836
131	0x3d711645	0.05885913
132	0x3d5e69ab	0.05429999
133	0x3c2f8810	0.010713592
134	0x3d152811	0.036415163
135	0x3dde3e9b	0.10851785
136	0x3e27c879	0.16385068
137	0x3e335b51	0.17515303
138	0x3e27b0ef	0.16376089
139	0x3e39ef83	0.18157773
140	0x3e4055af	0.18782686
141	0x3dd22c27	0.10262328
142	0x3e072046	0.13195905
143	0x3e2aeb61	0.16691352
144	0xbc5b7651	-0.013394908
145	0xbcad52f5	-0.021157721
146	0xbb6a865a	-0.0035785646
147	0xbb9fe606	-0.004879716
148	0x39bdfc9b	0.00036237095
149	0xba3a3d46	-0.00071044674
150	0x3c1db2a5	0.009625112
151	0xbc6d4790	-0.014482394
152	0x3cf392b9	0.029733049
153	0xbd2da5c6	-0.042394422
154	0x3c4e57b4	0.012594152
155	0xbcb261ee	-0.021775212
156	0xbd0da52c	-0.03458135
157	0xbd0f94d5	-0.035054047
158	0xbcd205aa	-0.025637466
159	0x391d09a3	0.00014976277
160	0xbcf21794	-0.029552259
161	0xbd5b6411	-0.053562228
162	0x3c6c4d05	0.01442266
163	0xbcb9627e	-0.022629973
164	0x3aaf3157	0.0013366145
165	0x3c34cb4d	0.011034799
166	0xbbb148e9	-0.005410303
167	0x3c2d64da	0.010583127
168	0xbc9bde76	-0.019026976
169	0x3c8016a2	0.015635792
170	0x3c1f41fe	0.009720324
171	0x3ab772c6	0.0013995997
172	0xbbdccd53	-0.0067383437
173	0x3c7f5c42	0.015585961
174	0xbcceb942	-0.025234822
175	0xbc09d832	-0.008413361
176	0x3c8bad4f	0.017050413
177	0xbced364d	-0.028956557
178	0x3afacc0a	0.0019134295
179	0x3cca612a	0.024704535
180	0x3bf1e8ea	0.007382502
181	0x3d612c32	0.05497379
182	0x3d576327	0.052584793
183	0x3ced53db	0.02897065
184	0x3db531a3	0.08847358
185	0x3d4ebb38	0.050471514
186	0x3d232922	0.03983415
187	0x3d8bb026	0.06820707
188	0x3cb47d18	0.022032306
189	0x3d08cc7a	0.03339813
190	0x3d5e61e8	0.05429259
191	0x3c4406c8	0.011964507
192	0x3d265bdc	0.040614948
193	0x3c37a9d1	0.011209921
194	0x3ccf5679	0.025309788
195	0x3d76a9b2	0.060220428
196	0x3d2641c0	0.040590048
197	0x3cb4449a	0.022005368
198	0x3d777f56	0.06042417
199	0x3dabfc70	0.08397758
200	0x3dacda09	0.084400244
201	0x3dca95d7	0.09891861
202	0x3da65dd9	0.08123369
203	0x3d9d6be2	0.07686593
204	0x3d1b2ece	0.037886433
205	0x3d5f316a	0.054490484
206	0x3d863138	0.065523565
207	0x3c41ad75	0.011821141
208	0x3c7d5d57	0.0154641485
209	0x3c7d5f40	0.015464604
210	0x3c383891	0.011243955
211	0x3bf53665	0.007483291
212	0x3c97bfac	0.018524013
213	0x3d203e53	0.039121937
214	0xbb32715f	-0.002722822
215	0xbc62471a	-0.013810897
216	0xbc2a469d	-0.010392812
217	0xbcb4f528	-0.022089556
218	0x3c0698d7	0.008215151
219	0x3c85c1cb	0.01632776
220	0x3d522b08	0.05131057
221	0x3d6d2169	0.05789319
222	0xbc2f0a31	-0.010683582
223	0xbc1dc0da	-0.009628499
224	0x3c933252	0.01796833
225	0x3b9edb50	0.0048479214
226	0xbbf1fcdc	-0.0073848795
227	0x3c9e60fe	0.019333359
228	0xbbcc30be	-0.0062313965
229	0x3b64d3a8	0.0034916196
230	0xbb0445f1	-0.002018329
231	0xbb8433a9	-0.0040344787
232	0xbcc321fa	-0.023819912
233	0x3cc560c9	0.024094002
234	0xbb83e59f	-0.0040251757
235	0xbcf6d7de	-0.03013223
236	0x3c1bb9eb	0.0095047755
237	0x3cf9f407	0.03051187
238	0xbc5b8cc9	-0.013400265
239	0x3d044f6e	0.032302313
240	0x3bdb9ebf	0.0067022736
241	0xbb873fc1	-0.004127473
242	0x3c573156	0.013134321
243	0xbcf08342	-0.029359464
244	0xbc97d4a7	-0.018534018
245	0xbc6493d9	-0.013951265
246	0xbd12f792	-0.035880633
247	0x3b04e8fe	0.0020280476
248	0x3aeab1f8	0.0017905822
249	0x3cadc675	0.021212796
250	0x3c161a9d	0.009161619
251	0x3ca5ead3	0.020253574
252	0x3bd4f299	0.0064986465
253	0xbcc39c4b	-0.023878237
254	0x3b253d6a	0.0025213608
255	0x3d0d09ea	0.034433283

layer3.0.bias f4 [64]
0	0xbe7c22c5	-0.24622639
1	0xbe27c131	-0.1638229
2	0xbdeedd84	-0.116633445
3	0xbdd41518	-0.10355586
4	0xbededd9b	-0.43528447
5	0xbdaca91d	-0.08430693
6	0x3c953fe2	0.018218938
7	0xbd5dff7c	-0.054198727
8	0xbead7e51	-0.33885434
9	0xbe105727	-0.14095746
10	0xbe3bf0f1	-0.1835363
11	0x3d15ef18	0.03660497
12	0xbde7d9d6	-0.11320846
13	0xbe1449c8	-0.1448127
14	0x3df19fbd	0.11798046
15	0xbe93f853	-0.28900394
16	0xbdcc488c	-0.09974775
17	0xbe3bbc4f	-0.18333553
18	0x3dee7064	0.116425306
19	0x3d7d0b72	0.061778493
20	0xbe2c0038	-0.16796958
21	0xbc63e7eb	-0.013910274
22	0xbe2c45f7	-0.16823564
23	0x3e707d78	0.23485363
24	0x3c7ba0ec	0.015358191
25	0xbe45070d	-0.19240971
26	0xbc4cbd3f	-0.012496292
27	0xbeb4375c	-0.35198486
28	0x3d6e6352	0.058200188
29	0xbe52822a	-0.20557466
30	0x3ce3031b	0.027711442
31	0x3c9e1916	0.019299071
32	0xbebd593a	-0.36982137
33	0xbd14f35b	-0.036364894
34	0xbe87c20e	-0.2651524
35	0xbdb21782	-0.0869589
36	0x3d3972b0	0.04527539
37	0xbe5abd53	-0.21361284
38	0xbd8ce7c6	-0.06880145
39	0xbeabff7a	-0.3359335
40	0xbd9b36a0	-0.07578778
41	0xbe3e4ee4	-0.18584782
42	0x3d92c3f3	0.071662806
43	0xbe37bb86	-0.17942628
44	0xbe95fa19	-0.29292372
45	0xbd340d6a	-0.043958105
46	0xbc8a96bc	-0.016917579
47	0xbe7064bc	-0.23475927
48	0xbd225d3a	-0.03963969
49	0x3cf07787	0.02935387
50	0x3afd84e7	0.0019341976
51	0xbecf844d	-0.40530625
52	0x3c485b46	0.0122287925
53	0xbe3697b6	-0.1783131
54	0xbe813e97	-0.25243065
55	0xbe5d3d47	-0.21605407
56	0x3d08873d	0.0333321
57	0xbe201985	-0.15634735
58	0xbd9a7795	-0.0754234
59	0x3d8e5788	0.06950289
60	0xbe711edf	-0.23546933
61	0xbe19628e	-0.14979002
62	0xbdf02a54	-0.117268234
63	0xbe8431e9	-0.25819328

layer3.2.weight f4 [64]
0	0x3f4fbb5d	0.8114527
1	0x3f464455	0.77448016
2	0x3f44455d	0.7666834
3	0x3f5eca13	0.8702709
4	0x3f74699e	0.9547366
5	0x3f510295	0.81644565
6	0x3f66eb33	0.90202636
7	0x3f3e4c44	0.7433512
8	0x3f631433	0.88702697
9	0x3f50aedd	0.8151682
10	0x3f489b56	0.78362024
11	0x3f672ee4	0.90305924
12	0x3f585eff	0.8451995
13	0x3f470b13	0.7775127
14	0x3f6126e8	0.8794999
15	0x3f4e542e	0.805972
16	0x3f5805f4	0.84384084
17	0x3f62e475	0.8862985
18	0x3f1c9103	0.6115877
19	0x3f4f2f81	0.8093186
20	0x3f68293b	0.9068791
21	0x3f63e2ff	0.89018244
22	0x3f5f4cde	0.87226665
23	0x3f01b9cc	0.5067413
24	0x3f5b4172	0.85646737
25	0x3f465740	0.7747688
26	0x3f5550b7	0.83326286
27	0x3f4aa58f	0.7915887
28	0x3f310bde	0.6915873
29	0x3f4c0acd	0.7970398
30	0x3f3cf69f	0.73813814
31	0x3f11a352	0.5688983
32	0x3f6af503	0.9178011
33	0x3f5a3e6c	0.852515
34	0x3f64c6b2	0.89365685
35	0x3f5eb147	0.86989254
36	0x3f59ce58	0.8508048
37	0x3f683cbc	0.90717673
38	0x3f61fd22	0.88276875
39	0x3f621cbe	0.8832511
40	0x3f522f2a	0.82103217
41	0x3f3f9972	0.74843514
42	0x3f65589c	0.8958833
43	0x3f425f6c	0.7592685
44	0x3f69d79b	0.9134461
45	0x3f606aaa	0.87662756
46	0x3f5582de	0.8340281
47	0x3f3cd9e0	0.7376995
48	0x3f4acc26	0.79217756
49	0x3f4dabb6	0.80340135
50	0x3f5c4161	0.8603726
51	0x3f67d53b	0.9055974
52	0x3f5de709	0.86680657
53	0x3f68a3f6	0.90875185
54	0x3f5c0a2d	0.85953027
55	0x3f502fa2	0.8132268
56	0x3f345ad6	0.70451105
57	0x3f6650e3	0.89967173
58	0x3f1dc09f	0.6162204
59	0x3f5be0f8	0.8589015
60	0x3f4da586	0.80330694
61	0x3f3611d9	0.71120983
62	0x3f527517	0.82209915
63	0x3f538a91	0.8263331

layer3.2.bias f4 [64]
0	0x3c6f1040	0.014591277
1	0x3de25ef3	0.110532664
2	0x3d98810c	0.07446489
3	0x3de31b30	0.1108917
4	0x3db1e2a6	0.08685808
5	0x3dcf6b99	0.101279445
6	0xbd95c245	-0.073124446
7	0x3dd55020	0.10415673
8	0x3dc964e0	0.098336935
9	0xbcbf6051	-0.023361357
10	0xbd498a69	-0.049204264
11	0x3dad4a65	0.08461455
12	0x3dde02d5	0.10840384
13	0xbd1a3496	-0.037647806
14	0xbd905438	-0.070473135
15	0x3dbdff27	0.09277182
16	0xbd6608b8	-0.05616066
17	0xbda2eb70	-0.079550624
18	0x3dd55c1e	0.104179606
19	0xbd608a76	-0.054819547
20	0x3dbe5096	0.09292714
21	0x3dd0d699	0.10197181
22	0x3dbc87c0	0.0920558
23	0x3cc508f6	0.024052124
24	0x3dab8a9d	0.08376048
25	0x3d97c8fe	0.07411383
26	0x3dc08d7c	0.09401986
27	0x3daac991	0.08339227
28	0x3dbd3996	0.09239499
29	0x3dbdc600	0.09266281
30	0x3dcb411d	0.09924529
31	0x3d915bbe	0.070975766
32	0x3ddcc72a	0.10780175
33	0xbd703f5d	-0.058654178
34	0x3df812b2	0.12112941
35	0x3dbab1e9	0.09115965
36	0x3db68687	0.08912378
37	0x3de03d5b	0.109492026
38	0x3dbe579a	0.092940524
39	0x3dbac507	0.09119611
40	0x3dd96c36	0.10616343
41	0x3dbed8b1	0.09318674
42	0xbd97d841	-0.07414294
43	0xbc7a054d	-0.015260053
44	0x3dc1cd0d	0.094629385
45	0xbd88b87c	-0.066758126
46	0x3da7be0e	0.08190547
47	0x3ddd8162	0.108156934
48	0x3dd1452e	0.10218273
49	0xbd4ddb42	-0.05025793
50	0xbd86cf94	-0.06582561
51	0x3db779a4	0.08958748
52	0x3da76f76	0.08175556
53	0x3e009da3	0.12560134
54	0x3dc6de7e	0.09710406
55	0x3d90a7e4	0.070632726
56	0x3d92a2f8	0.0715999
57	0x3db85078	0.08999723
58	0x3db8b5d2	0.090190545
59	0xbd848910	-0.06471455
60	0x3dc91af5	0.09819595
61	0x3db0aca2	0.08626677
62	0xbcf01778	-0.029308066
63	0x3d7b141b	0.06129847
