encoder_weights.pth (torch, 619398 bytes, 20 tensors)

layer1.0.weight f4 [64, 4, 3, 3]
0.052885942 0.08672444 -0.09107513 -0.060426276 0.14105676 0.08146177 -0.07706856 0.12283416
-0.06573086 0.16278662 -0.05492279 -0.037267316 -0.08077797 -0.0109909065 -0.08700915 0.11611393
0.026417304 0.016388033 0.11104104 0.17526773 0.099870086 0.041369714 0.14097224 0.12306383
-0.020594962 -0.10043741 0.15390933 0.18492419 0.18144354 0.111589655 0.21989354 0.09019057
0.0016421574 0.19626895 -0.039996535 -0.057569776 -0.060981587 0.041052405 0.024765298 0.18316208
0.19655524 -0.020271715 -0.13112944 -0.034922402 -0.53578043 -0.08853055 0.0065513547 -0.08338271
0.18227875 0.2658771 0.024724428 -0.054290395 -0.004507935 -0.4167569 -0.011423552 0.018374506
0.042122364 0.14893691 0.040867247 -0.11209901 -0.06416136 0.10405677 -0.56507075 -0.053061415
-0.112687945 0.03171439 0.06437593 0.112367146 0.08188111 -0.11818264 0.108245395 -0.6088015
-0.0044360585 0.17760085 0.042622633 -0.050890673 0.08117146 0.091473356 0.13278529 0.16751708
0.11013744 0.071939774 0.023338119 0.033682827 -0.13255043 0.17597914 0.17598706 -0.1576614
0.102565676 -0.06663116 -0.17886789 0.06776326 0.103303134 -0.11166033 0.029194951 -0.090590395
-0.07142424 -0.056262195 0.0055218074 0.10313725 -0.07507641 -0.035326414 0.1534207 -0.05777989
0.16836402 0.16903533 -0.106414534 0.14567597 0.038168255 -0.17760001 -0.06132438 0.09790227
-0.0018827517 -0.13952595 -0.035562836 0.06588315 0.13443281 0.10195598 0.048774917 0.16159882
0.11366109 -0.011809842 -0.08557779 -0.056595903 0.08528369 0.1335589 -0.16058035 0.064043075
-0.020010024 0.16865231 -0.041618712 0.11286329 0.14877616 0.17661585 -0.018535065 0.0736484
0.012987914 0.17424528 0.025135936 -0.029167766 0.1692051 0.13422868 0.18074155 -0.012428803
0.027799876 0.018737622 0.11023008 0.070938624 -0.01894397 -0.08412596 -0.012370084 -0.20400526
0.0743395 0.16112106 0.08949377 0.019707903 -0.01619223 -0.060488097 -0.05506897 -0.12252369
-0.027088156 0.02822014 0.091151394 -0.09186433 -0.06423412 -0.061614685 -0.060582142 0.18776011
0.036276758 -0.11655003 0.09159024 0.12983514 -0.043290753 0.10880792 -0.17303893 -0.08805964
-0.18276106 0.10114769 0.0071675447 0.116742134 -0.12306378 -0.24690515 -0.10291924 -0.16220437
-0.14919253 0.012717134 -0.187301 -0.28099895 -0.13194013 -0.07689542 -0.09765821 -0.12315843
-0.14199948 -0.14043866 0.046467844 -0.03912027 -0.023575475 0.010611919 -0.033458576 -0.13572739
0.02535995 -0.055080038 -0.047474574 -0.116846666 -0.14980032 -0.0069140797 -0.06890067 -0.25372759
-0.06194137 -0.28055865 -0.06980274 -0.123904966 0.030837566 -0.18213113 -0.10610348 -0.16534054
0.12796788 0.18675096 -0.121345714 -0.04755693 0.029859154 0.101985045 -0.15055735 -0.10652333
0.008972797 0.09817674 0.07677622 -0.0995857 0.06394555 -0.1416481 -0.056237463 0.036142677
-0.13701361 0.15597625 0.08335408 -0.08294465 -0.11608596 0.054302245 -0.10006273 -0.11757512
0.09466357 0.14159991 0.023022402 -0.09501834 0.14281031 -0.0010402364 0.036303747 -0.18778081
0.2549744 -0.1757297 -0.13706128 0.17958283 -0.26671228 -0.2152407 -0.26987278 -0.116925865
00000000: ee9e 583d 959c b13d 9985 babd 8b81 77bd
00000010: 2f71 103e 6ed5 a63d 1fd6 9dbd 7a90 fb3d
00000020: e79d 86bd 89b1 263e b8f6 60bd 9da5 18bd
00000030: ec6e a5bd 3413 34bc da31 b2bd 24cd ed3d
00000040: 1a69 d83c 3240 863c 7c69 e33d 6279 333e
00000050: b088 cc3d 4a73 293d 075b 103e e408 fc3d
00000060: c4b6 a8bc 21b2 cdbd 689a 1d3e c45c 3d3e
00000070: 56cc 393e 1e89 e43d c62b 613e d5b5 b83d
00000080: a93d d73a bafa 483e 68d3 23bd 49ce 6bbd
00000090: d4c7 79bd 9126 283d 98e0 ca3c d78e 3b3e
000000a0: c745 493e de10 a6bc cc46 06be cb0a 0fbd
000000b0: e828 09bf 814f b5bd bfac d63b 8ec4 aabd
000000c0: 48a7 3a3e 0b21 883e e28a ca3c 9b5f 5ebd
000000d0: 4db7 93bb 2961 d5be da29 3bbc 2286 963c
000000e0: 8088 2c3d eb82 183e 6a64 273d 2a94 e5bd
000000f0: 0867 83bd b71b d53d 7aa8 10bf ed56 59bd
00000100: f0c8 e6bd f3e6 013d 87d7 833d bf20 e63d
00000110: 49b1 a73d bd09 f2bd c3af dd3d 6ada 1bbf
00000120: 5b5c 91bb ffdc 353e 1295 2e3d bd72 50bd
00000130: 393d a63d 6256 bb3d def8 073e 9989 2b3e
00000140: bd8f e13d 2955 933d 952f bf3c 01f7 093d
00000150: 4dbb 07be e033 343e f435 343e fd71 21be
00000160: f40d d23d eb75 88bd 2529 37be 77c7 8a3d
00000170: 9890 d33d 2cae e4bd 402a ef3c 7587 b9bd
00000180: df46 92bd 3073 66bd 47f0 b43b 9f39 d33d
00000190: a9c1 99bd 6eb2 10bd 511a 1d3e 9baa 6cbd
000001a0: 9e67 2c3e 9917 2d3e ddef d9bd 152c 153e
000001b0: 5156 1c3d c7dc 35be 462f 7bbd fc80 c83d
000001c0: aac6 f6ba e4df 0ebe 56aa 11bd bfed 863d
000001d0: c1a8 093e 4cce d03d 35c8 473d 297a 253e
000001e0: 25c7 e83d 117e 41bc 6943 afbd 1bd1 67bd
000001f0: 37a9 ae3d aac3 083e 2d6f 24be 0429 833d
00000200: 10ec a3bc 31b3 2c3e 6278 2abd de24 e73d
00000210: c758 183e c9da 343e d9d6 97bc f9d4 963d
00000220: 42cb 543c 5b6d 323e e1e9 cd3c 3df1 eebc
00000230: 1a44 2d3e 3e73 093e 5014 393e 2ea2 4bbc
00000240: 91bc e33c a47f 993c 4fc0 e13d 4548 913d
00000250: 6230 9bbc 3b4a acbd e5ab 4abc c1e6 50be
00000260: 4f3f 983d ebfc 243e 8248 b73d 7872 a13c
00000270: 91a5 84bc 5ec2 77bd 0090 61bd b3ed fabd
00000280: fbe7 ddbc ec2d e73c 95ad ba3d 5e23 bcbd
00000290: 2e8d 83bd ae5f 7cbd fb24 78bd 3044 403e
000002a0: f096 143d c8b1 eebd aa93 bb3d 81f3 043e
000002b0: a551 31bd b0d6 de3d 1e31 31be 9d58 b4bd
000002c0: b725 3bbe 8526 cf3d b9dd ea3b 8016 ef3d
000002d0: dd08 fcbd b4d4 7cbe 53c7 d2bd e718 26be
000002e0: edc5 18be 875b 503c d5cb 3fbe 18df 8fbe
000002f0: 501b 07be 597b 9dbd 0701 c8bd 7d3a fcbd
00000300: 5068 11be 27cf 0fbe 1155 3e3d 943c 20bd
00000310: 5b21 c1bc 9ddd 2d3c dc0b 09bd 1ffc 0abe
00000320: abbf cf3c 9b9b 61bd b374 42bd 4e4d efbd
00000330: 4165 19be 818f e2bb cb1b 8dbd 95e8 81be
00000340: 3cb6 7dbd 62a5 8fbe bdf4 8ebd e3c1 fdbd
00000350: 109f fc3c 9580 3abe c84c d9bd 084f 29be
00000360: 030a 033e a53b 3f3e 1a84 f8bd 0ecb 42bd
00000370: 2f9b f43c 89dd d03d b52b 1abe e728 dabd
00000380: a302 133c e310 c93d da3c 9d3d 96f3 cbbd
00000390: e2f5 823d 330c 11be 4159 66bd 580a 143d
000003a0: 4c4d 0cbe 3db8 1f3e 8bb5 aa3d e2de a9bd
000003b0: 7abe edbd 086c 5e3d b0ed ccbd 39cb f0bd
000003c0: f9de c13d 91ff 103e 7a99 bc3c fa98 c2bd
000003d0: de3c 123e 8b58 88ba 3db3 143d 9d49 40be
000003e0: 018c 823e 7df2 33be cb59 0cbe 90e4 373e
000003f0: 838e 88be 0f68 5cbe c42c 8abe d476 efbd

layer1.0.bias f4 [64]
0.0053470423 -0.041205414 0.060113378 0.1577556 0.24609886 0.044268474 0.35611436 0.009447923
0.16540037 -0.113123484 -0.12279187 -0.06500925 -0.2053767 0.1000914 0.017158493 -0.102028854
-0.0489129 0.46008152 0.013558903 0.007488506 -0.14405462 -0.06434175 0.067867614 0.1832678
0.09941781 -0.16537471 0.24472693 0.26462296 -0.007324307 0.14088923 -0.32864282 0.18364783
0.0005413967 0.18066986 -0.14293344 0.176493 0.27575365 0.113034606 0.044690236 0.14117126
0.21045008 0.19404045 -0.1250044 0.13229482 0.10527243 -0.3293703 -0.0027157764 -0.2297274
0.17962818 0.21272479 0.05339767 -0.0876529 -0.17257114 0.25687638 0.12372256 0.2876186
-0.21415956 -0.15997642 0.1592136 -0.1522174 0.0068583214 0.08642189 0.03388278 0.0036037662
00000000: 3e36 af3b 02c7 28bd 7239 763d af8a 213e
00000010: 5701 7c3e dc52 353d 9f54 b63e 76cb 1a3c
00000020: b75e 293e 49ad e7bd 4e7a fbbd 9223 85bd
00000030: 454e 52be b8fc cc3d f88f 8c3c 81f4 d0bd
00000040: e558 48bd ce8f eb3e 2926 5e3c 2462 f53b
00000050: 0e83 13be 9cc5 83bd 2dfe 8a3d 8eaa 3b3e
00000060: 919b cb3d fd57 29be b299 7a3e a97c 873e
00000070: be00 f0bb 4445 103e df43 a8be 2d0e 3c3e
00000080: 84ec 0d3a 8501 393e 255d 12be 95ba 343e
00000090: 952f 8d3e b07e e73d 1c0d 373d 338f 103e
000000a0: 3a80 573e 8ab2 463e 2701 00be 4b78 073e
000000b0: 1299 d73d 39a3 a8be 2bfb 31bb a93d 6bbe
000000c0: 73f0 373e 87d4 593e 84b7 5a3d 5d83 b3bd
000000d0: 7db6 30be 4d85 833e 4162 fd3d bf42 933e
000000e0: a54c 5bbe dcd0 23be e408 233e e1de 1bbe
000000f0: c5bb e03b f6fd b03d abc8 0a3d 2a2d 6c3b

layer1.2.weight f4 [64]
0.8172332 0.65248823 0.74387485 0.70147765 0.8301288 0.9418083 1.1461968 0.89498883
0.6161447 0.8827851 0.8820542 0.77989674 0.84718394 0.75774354 0.80629003 0.88145024
0.9248846 0.8849783 0.7976345 0.9187806 0.8587616 0.72465044 0.7346925 0.8117744
0.88112885 0.92990535 0.7717825 1.1705307 0.7728353 0.72465885 0.8767424 1.0743786
0.694444 0.804853 0.8509313 0.79712534 0.75949144 0.82092756 0.6792628 0.73063177
0.8264078 0.6746481 0.8956974 0.8972762 0.75680584 0.9336966 0.831512 0.9521168
0.74518865 1.1329539 0.8467852 0.91178954 0.80841386 0.81112915 0.6850842 1.198119
0.9212118 0.94781065 0.79204375 0.8088266 0.78567225 0.8031417 0.8267898 0.8376913
00000000: 3236 513f 7809 273f 956e 3e3f 0a94 333f
00000010: 5283 543f 591a 713f 94b6 923f fd1d 653f
00000020: a9bb 1d3f 34fe 613f 4ece 613f 50a7 473f
00000030: 0ce1 583f 7bfb 413f 0669 4e3f b9a6 613f
00000040: 3dc5 6c3f f08d 623f c631 4c3f 3535 6b3f
00000050: cdd7 5b3f b182 393f cf14 3c3f 72d0 4f3f
00000060: a991 613f 470e 6e3f 8a93 453f f3d3 953f
00000070: 89d8 453f 3e83 393f 3172 603f 3d85 893f
00000080: 15c7 313f d90a 4e3f a2d6 593f 6810 4c3f
00000090: 086e 423f 4f28 523f 2be4 2d3f af0a 3b3f
000000a0: 768f 533f bdb5 2c3f 6d4c 653f e5b3 653f
000000b0: 07be 413f be06 6f3f f8dd 543f edbd 733f
000000c0: afc4 3e3f a204 913f eac6 583f 0a6b 693f
000000d0: 36f4 4e3f 29a6 4f3f ae61 2f3f f75b 993f
000000e0: 89d4 6b3f b8a3 723f 61c3 4a3f 430f 4f3f
000000f0: d121 493f b29a 4d3f 7fa8 533f f072 563f

layer1.2.bias f4 [64]
0.19600382 -0.54769784 0.20296432 0.19583021 -0.08423721 0.13435507 -0.015169075 -0.19152553
0.03846607 -0.31147525 -0.048583686 0.3383511 0.22810629 0.087411426 -0.26875123 -0.7909168
0.63600194 0.15115885 0.29216772 -0.10268888 -0.57123786 -0.46759865 -0.367139 0.11398278
0.20670675 0.17711632 -0.100101404 -0.0050102985 -0.13527116 0.1321664 -0.05347076 0.03623929
0.079062596 0.14240494 0.21665414 -0.2656798 -0.02049671 0.18504822 -0.21720415 0.09162625
0.14952852 -0.0060897735 -0.14527836 0.040204704 0.15236346 -0.070201665 -0.09198499 -0.015084922
0.09551142 0.09047214 -0.46381667 0.7795256 0.04491711 -0.2958429 0.14733851 -0.042700246
-0.2809227 0.05239112 0.13043354 -0.34963143 0.1879057 -0.19100286 0.41034278 0.18766455
00000000: 3ab5 483e ed35 0cbf e1d5 4f3e b787 483e
00000010: 8f84 acbd 6094 093e b687 78bc 451f 44be
00000020: 998e 1d3d af79 9fbe b0ff 46bd 5b3c ad3e
00000030: b294 693e c304 b33d c399 89be 8679 4abf
00000040: 06d1 223f 63c9 1a3e 0297 953e 8c4e d2bd
00000050: a53c 12bf 1769 efbe a5f9 bbbe ce6f e93d
00000060: efaa 533e fb5d 353e f701 cdbd 6e2d a4bb
00000070: 8684 0abe a156 073e 2804 5bbd a66f 143d
00000080: 92eb a13d 9ad2 113e 95da 5d3e 2f07 88be
00000090: b7e8 a7bc 487d 3d3e c46a 5ebe 8ba6 bb3d
000000a0: 011e 193e b98c c7bb dac3 14be b0ad 243d
000000b0: 2b05 1c3e e4c5 8fbd a062 bcbd c026 77bc
000000c0: 7e9b c33d 7549 b93d 6179 edbe fd8e 473f
000000d0: 01fb 373d b878 97be e8df 163e 74e6 2ebd
000000e0: 1ad5 8fbe 1298 563d 5f90 053e e402 b3be
000000f0: 5a6a 403e 4196 43be 7318 d23e 232b 403e

layer1.2.running_mean f4 [64]
0.7907624 0.004526809 0.56455845 0.8240319 0.22851337 0.00027177017 0.35437194 0.0017726099
0.2331278 3.6956733e-21 1.5329117e-07 3.0715732e-09 0.2947372 0.08155063 0.0014817883 6e-45
2.5903332e-31 0.4987075 0.00014674 0.00069131004 9.1483224e-17 0.0016498911 0.13277481 0.25386655
0.0035993266 6.595084e-33 0.27785495 0.27829182 0.27706176 0.25114164 0.059459906 0.24052607
0.5516009 0.2094391 0.18941149 0.0017405619 0.06285777 0.010119126 0.012359667 0.20146802
0.44233808 0.12355394 0.38932008 0.12863483 0.5613557 0.06113807 3.9078955e-08 0.07049894
1.1539263 0.22209506 0.0019705272 6e-45 0.32552782 0.0059982175 0.6523374 0.252386
6.597045e-07 0.17023739 0.41529518 6e-45 0.6844056 0.00059466826 0.000301369 0.7256259
00000000: 686f 4a3f a055 943b e786 103f c1f3 523f
00000010: 69ff 693e 607c 8e39 3d70 b53e eb56 e83a
00000020: 0eb9 6e3e 5c9e 8b1d 5b98 2434 b013 5331
00000030: cbe7 963e 0404 a73d 9138 c23a 0400 0000
00000040: 4b1f a80c 9756 ff3e 38de 1939 0839 353a
00000050: 2af2 d224 2941 d83a 1ff6 073e ccfa 813e
00000060: aee2 6b3b 7bf9 080a 0143 8e3e 447c 8e3e
00000070: 0adb 8d3e a395 803e 3b8c 733d 774c 763e
00000080: b735 0d3f 3477 563e 16f5 413e 9123 e43a
00000090: 93bb 803d b1ca 253c 3380 4a3c a24d 4e3e
000000a0: 237a e23e d909 fd3d f654 c73e d9b8 033e
000000b0: 02b5 0f3f ea6b 7a3d c4d7 2733 c061 903d
000000c0: dbb3 933f e36c 633e f623 013b 0400 0000
000000d0: 95ab a63e b28c c43b 95ff 263f bd38 813e
000000e0: 8c16 3135 b652 2e3e 92a1 d43e 0400 0000
000000f0: 3535 2f3f 83e3 1b3a 1001 9e39 9ec2 393f

layer1.2.running_var f4 [64]
0.110634446 0.0019304793 0.049111977 0.08012732 0.0020841048 1.1738156e-05 0.0022335735 0.000483552
0.0074893264 1.131333e-22 8.993855e-09 6.9204704e-11 0.05814923 0.006337297 0.00027388078 6e-45
6.726406e-34 0.008555997 8.089298e-06 0.000103832484 1.8615685e-19 0.00047567327 0.038691007 0.02170215
0.0007104013 3.9410164e-35 0.034117345 0.0039767115 0.070693165 0.008122286 0.008932035 0.0040807165
0.054057065 0.004079269 0.0280763 0.00024459095 0.008935802 0.0014303422 0.0022678685 0.0074407225
0.070056215 0.01223095 0.10175968 0.03286044 0.043791972 0.010557761 2.8861286e-10 0.013469523
0.15490408 0.0022022603 0.00039875382 6e-45 0.06142266 0.00091006816 0.05493765 0.002292172
3.4545145e-08 0.03786548 0.099131525 6e-45 0.07773327 4.6589346e-05 1.144897e-05 0.092676125
00000000: 5094 e23d 2308 fd3a a429 493d cb19 a43d
00000010: 7a95 083b ffee 4437 2561 123b 4085 fd39
00000020: 0669 f53b 0fc5 081b 6583 1a32 c92e 982e
00000030: e32d 6e3d 1aa9 cf3b a897 8f39 0400 0000
00000040: ef85 5f08 742e 0c3c 45b7 0737 a4c0 d938
00000050: 75c6 5b20 c963 f939 767a 1e3d b5c8 b13c
00000060: 393a 3a3a 568a 5106 a1be 0b3d 134f 823b
00000070: 94c7 903d 5613 053c ac57 123c 88b7 853b
00000080: f16a 5d3d 63ab 853b 4500 e63c 713c 8039
00000090: 7867 123c 527a bb3a 85a0 143b 4ed1 f33b
000000a0: a279 8f3d 5364 483c 6167 d03d ab98 063d
000000b0: 365f 333d 76fa 2c3c a6aa 9e2f 46af 5c3c
000000c0: 2d9f 1e3e cc53 103b d50f d139 0400 0000
000000d0: 5496 7b3d a491 6e3a 4d06 613d 4438 163b
000000e0: ca5e 1433 d518 1b3d 7805 cb3d 0400 0000
000000f0: 9f32 9f3d ee68 4338 f414 4037 fbcc bd3d

layer2.0.weight f4 [128, 64, 3, 3]
0.018255154 -0.009768099 0.0132663 0.012354878 0.020628909 0.040050834 -0.03525596 0.04293359
0.021127274 -0.079255216 0.121828906 0.06722301 0.033221878 0.11675102 0.026553072 0.098696396
0.033955906 -0.026708374 -0.008447989 -0.014839723 0.03210091 0.0012929532 0.0050340667 0.010149624
-0.04728265 -0.04323762 -0.0042487234 0.015698565 -0.022028636 -0.03508703 0.03871122 -0.051514093
0.017342381 0.015908686 -0.01636812 -0.029029211 0.019842507 -0.12867539 0.052658033 -0.026805378
-0.10046709 0.037299927 0.027125195 -0.037481416 0.14490937 0.004814691 -0.0003917247 0.013742429
-0.012207697 -0.008140598 -0.047335774 -0.061711054 -0.021131624 -0.046178073 0.24971257 -0.09731106
0.007984428 -0.11461148 -0.17476933 0.07773325 -0.13353254 0.063875996 0.09315961 0.034815736
0.083005376 0.049715288 0.014743273 0.072816 0.028991653 -0.046996795 -0.056318764 -0.07730149
-0.010080001 -0.016227495 0.012496702 -0.067330934 0.0706107 0.05304898 -0.047766484 -0.0107075265
-0.02687192 -0.002254736 0.027338762 0.010316095 -0.03410681 0.012779786 0.00683083 0.019451043
-0.0023004713 -0.025916476 0.026395628 -0.021402955 0.023871519 -0.01633406 0.030627476 0.025481066
0.040480744 0.0090440875 0.0053007966 -0.005320829 -0.043242823 -0.010313819 -0.06284266 -0.053123556
-0.04572107 -0.04181731 -0.012281449 0.04247633 0.0136346705 0.032615736 -0.033933263 0.0418883
0.0118874805 -0.026887555 0.032827187 -0.05307649 -0.043954547 0.0961862 0.03275491 0.0071193725
-0.03564133 -0.05583705 -0.06982596 -0.03223813 -0.021548865 -0.03734947 -0.02960701 -0.0010321451
-0.02057892 0.028240193 -0.015038502 0.0068625994 0.019565811 0.0011495971 -0.03328578 -0.19128685
-0.17338365 -0.12015182 -0.19815925 -0.21135315 -0.21030645 -0.18812558 -0.20502597 -0.21924897
0.028067814 0.06931997 0.021628512 0.07030151 0.0708491 0.061009716 0.041814383 0.07358272
0.045363456 0.014497537 0.19971761 0.13035884 -0.14841555 -0.11030375 -0.035604592 -0.08003635
-0.05616378 0.08348608 -0.034753256 -0.021030912 -0.104073726 -0.04200491 -0.06508065 -0.13248067
-0.06263201 -0.052964985 -0.10174472 -0.060740493 0.044595238 -0.039060723 -0.067638926 0.08041594
-0.017427828 -0.14091186 0.021639548 -0.033436455 0.0020767762 -0.08092696 -0.10543925 -0.024443986
-0.11114493 -0.10293119 -0.051655028 -0.087007426 -0.10271627 0.02283284 0.0050783926 -0.061924268
-0.027522992 0.004466838 -0.01012531 -0.0021682652 -0.022727352 -0.052716114 0.01788041 0.040491503
0.02647161 -0.0005062411 -0.038967308 -0.012567725 0.04307915 -0.023064878 -0.040311977 -0.005925511
0.037128277 -0.054792088 -0.033068 0.011674437 -0.029485699 -0.0067986436 -0.014455172 0.025760313
-0.037579577 -0.09875946 -0.043942194 -0.009273906 0.007276985 -0.031142227 -0.0028679084 -0.026258137
0.0041997945 -0.013179769 0.02607378 0.026437424 -0.01800198 0.01419571 -0.00088474335 0.005928453
0.032653805 0.02987367 -0.024650559 0.012410238 -0.07188128 -0.05405099 -0.040502675 0.011435358
-0.022998651 -0.060504057 -0.012372174 -0.27708396 -0.04503512 -0.11730949 0.10188606 0.18372068
0.022550441 0.15960802 -0.025889209 -0.00724735 0.060004048 0.01955824 -0.030001875 0.035316598
00000000: d58b 953c 600a 20bc e55a 593c 1d6c 4a3c
00000010: f5fd a83c 580c 243d 8e68 10bd 22db 2f3d
00000020: 1b13 ad3c 8f50 a2bd 6f81 f93d 38ac 893d
00000030: aa13 083d 291b ef3d d485 d93c 5621 ca3d
00000040: 5915 0b3d 85cb dabc 6f69 0abc 4f22 73bc
00000050: 3e7c 033d 4f78 a93a d0f4 a43b 9c4a 263c
00000060: 74ab 41bd ee19 31bd e038 8bbb 479a 803c
00000070: 6675 b4bc 6bb7 0fbd a88f 1e3d 7100 53bd
00000080: 9c11 8e3c ef52 823c 7016 86bc abce edbc
00000090: c18c a23c 7bc3 03be f3af 573d f496 dbbc
000000a0: b1c1 cdbd cfc7 183d a835 de3c 1d86 19bd
000000b0: 1f63 143e 8ec4 9d3b 6660 cdb9 ed27 613c
000000c0: cb02 48bc 2560 05bc 28e3 41bd bbc4 7cbd
000000d0: 3a1c adbc 3825 3dbd a7b4 7f3e 054b c7bd
000000e0: 1ed1 023c 6cb9 eabd bbf6 32be 9c32 9f3d
000000f0: c1bc 08be 6bd1 823d 77ca be3d f29a 0e3d
00000100: b9fe a93d 42a2 4b3d c58d 713c 8e20 953d
00000110: e77f ed3c b67f 40bd 81ae 66bd 3e50 9ebd
00000120: 9726 25bc 86ef 84bc f8be 4c3c cde4 89bd
00000130: 589c 903d e349 593d caa6 43bd 9f6e 2fbc
00000140: 8022 dcbc 31c4 13bb 8af5 df3c d704 293c
00000150: 95b3 0bbd 4f62 513c 28d5 df3b cb57 9f3c
00000160: 81c3 16bb ca4e d4bc a53b d83c 4055 afbc
00000170: 348e c33c 02cf 85bc 79e6 fa3c abbd d03c
00000180: 23cf 253d a72d 143c 4eb2 ad3b 595a aebb
00000190: 631f 31bd 4bfb 28bc a7b3 80bd 1698 59bd
000001a0: 0446 3bbd a148 2bbd 2138 49bc a9fb 2d3d
000001b0: f463 5f3c 1498 053d 9bfd 0abd 1193 2b3d
000001c0: b5c3 423c 4a43 dcbc cd75 063d bc66 59bd
000001d0: af09 34bd 45fd c43d 032a 063d a049 e93b
000001e0: a5fc 11bd 64b5 64bd ea00 8fbd 210c 04bd
000001f0: 3f87 b0bc c2fb 18bd 668a f2bc 0b49 87ba
00000200: 2095 a8bc fa57 e73c 0d64 76bc a8df e03b
00000210: 7b48 a03c 14ae 963a ac56 08bd b3e0 43be
00000220: 7c8b 31be 2812 f6bd 42ea 4abe f66c 58be
00000230: 935a 57be fea3 40be 54f2 51be cd82 60be
00000240: 79ee e53c a1f7 8d3d 472e b13c 3dfa 8f3d
00000250: 5519 913d 53e5 793d 8f45 2b3d 89b2 963d
00000260: 08cf 393d 1487 6d3c c682 4c3e ca7c 053e
00000270: 3ffa 17be efe6 e1bd 1fd6 11bd 19ea a3bd
00000280: fe0b 66bd c0fa aa3d 6e59 0ebd 0549 acbc
00000290: 9b24 d5bd 570d 2cbd 0149 85bd 03a9 07be
000002a0: 3645 80bd d0f1 58bd 895f d0bd 06cb 78bd
000002b0: 7fa9 363d 23fe 1fbd 4786 8abd 1db1 a43d
000002c0: cec4 8ebc 334b 10be 6c45 b13c aaf4 08bd
000002d0: 861a 083b 09bd a5bd 89f0 d7bd c13e c8bc
000002e0: f49f e3bd 96cd d2bd 3994 53bd f330 b2bd
000002f0: e85c d2bd f00b bb3c a568 a63b 4da4 7dbd
00000300: e677 e1bc 8e5e 923b a1e4 25bc 7419 0ebb
00000310: b62e babc daec 57bd f079 923c 6bda 253d
00000320: fdda d83c 44b5 04ba 2f9c 1fbd dce8 4dbc
00000330: c373 303d 8ef2 bcbc 2c1e 25bd ca2a c2bb
00000340: d213 183d ab6d 60bd 5072 07bd 2346 3f3c
00000350: fe8b f1bc 28c7 debb 63d5 6cbc 4b07 d33c
00000360: 0bed 19bd 6642 cabd bbfc 33bd 95f1 17bc
00000370: c673 ee3b fc1d ffbc 85f3 3bbb 4e1b d7bc
00000380: 6e9e 893b f5ef 57bc ae98 d53c 4c93 d83c
00000390: e378 93bc 2095 683c 1fee 67ba 7843 c23b
000003a0: ffbf 053d a0b9 f43c f8ef c9bc 5054 4b3c
000003b0: 7e36 93bd 9264 5dbd 22e6 25bd 5e5b 3b3c
000003c0: ab67 bcbc 1ad3 77bd a9b4 4abc f3dd 8dbe
000003d0: bf76 38bd f53f f0bd a3a9 d03d 4621 3c3e
000003e0: b4bb b83c 4970 233e 9b15 d4bc 2e7b edbb
000003f0: cec6 753d 9a38 a03c 7ec6 f5bc 23a8 103d

layer2.0.bias f4 [128]
0.0013234533 -0.15144448 -0.06537825 -0.09558073 0.032122817 0.007423987 -0.052338224 0.072952576
-0.035586398 -0.13622673 -0.1703709 0.071741454 -0.14700866 -0.12204691 -0.16323234 0.06400785
-0.16308205 -0.03695416 0.051750693 -0.16947685 0.008104566 -0.040794622 -0.08872379 -0.006131382
-0.057262767 -0.12259216 0.124209106 0.114892624 -0.11214742 0.04203797 -0.08835476 -0.110178426
-0.06244495 -0.07189888 -0.0645073 -0.083165534 0.03105321 0.099283405 -0.107473545 0.066415906
-0.1050765 -0.08624524 -0.14881766 -0.09358059 0.03502229 -0.07829907 0.15334623 -0.09012582
-0.110748075 -0.14497428 -0.07777812 -0.119977064 -0.0137182865 -0.107769646 -0.10662511 0.062362824
-0.120846145 -0.10855707 -0.031045066 -0.07533285 0.04773343 -0.12519458 -0.18905699 0.07707268
-0.007867907 -0.1835241 -0.15676513 -0.11245449 -0.057248265 0.084857754 0.09460232 -0.10205371
-0.13079546 -0.14522907 -0.15501194 0.02233079 -0.08820004 -0.1471074 -0.1383105 -0.08555611
0.097693264 -0.13964228 -0.120718986 -0.19086057 -0.15891907 -0.02699696 -0.039632503 0.07883336
-0.22469868 -0.010842054 -0.068123534 0.050118502 -0.048467234 0.07643339 0.104914315 -0.037643503
-0.18470673 -0.22762491 0.009673696 0.044410627 0.011312822 -0.09884759 -0.044095013 0.0045379964
-0.12110226 -0.13755132 -0.039201 -0.14938791 -0.09238823 -0.06691157 -0.028278993 -0.11476438
0.021315115 -0.046380643 0.11007822 0.005920763 -0.076639846 -0.049883306 -0.092436284 0.076213114
0.032414995 -0.024690263 -0.23786181 -0.12823647 0.005165983 -0.026535343 -0.13545868 -0.25215405
00000000: b977 ad3a 4314 1bbe 08e5 85bd d4bf c3bd
00000010: 3793 033d eb44 f33b 9b60 56bd 2968 953d
00000020: 0bc3 11bd 057f 0bbe b675 2ebe 2fed 923d
00000030: 7089 16be bbf3 f9bd 6126 27be 8c16 833d
00000040: fbfe 26be 3f5d 17bd 89f8 533d 578b 2dbe
00000050: 03c9 043c 4318 27bd d2b4 b5bd c3e9 c8bb
00000060: 5d8c 6abd 9911 fbbd 5861 fe3d d34c eb3d
00000070: 8cad e5bd 0230 2c3d 57f3 b4bd 3aa5 e1bd
00000080: 47c6 7fbd b83f 93bd 671c 84bd b152 aabd
00000090: 4d63 fe3c 1955 cb3d 171b dcbd 1005 883d
000000a0: 5932 d7bd 58a1 b0bd a863 18be 2ea7 bfbd
000000b0: 8873 0f3d 435b a0bd cb06 1d3e e393 b8bd
000000c0: e3cf e2bd 2374 14be 234a 9fbd 89b6 f5bd
000000d0: aac2 60bc 55b6 dcbd 445e dabd 2970 7f3d
000000e0: 2f7e f7bd 2b53 debd 3952 febc 1c48 9abd
000000f0: 2184 433d 0233 00be 2898 41be 48d8 9d3d
00000100: 65e8 00bc beed 3bbe 0a87 20be 8a4e e6bd
00000110: 287d 6abd e7c9 ad3d dcbe c13d 8901 d1bd
00000120: 3fef 05be eeb6 14be 73bb 1ebe 10ef b63c
00000130: 39a2 b4bd 52a3 16be 45a1 0dbe 0b38 afbd
00000140: 6813 c83d 63fe 0ebe 843b f7bd f470 43be
00000150: aebb 22be bb28 ddbc b155 22bd 6273 a13d
00000160: 6917 66be dfa2 31bc 5a84 8bbd 0f49 4d3d
00000170: 9485 46bd 1c89 9c3d 51dd d63d 1330 1abd
00000180: c323 3dbe 8116 69be 6c7e 1e3c ebe7 353d
00000190: 6a59 393c 9b70 cabd f99c 34bd 79b3 943b
000001a0: 7604 f8bd 41da 0cbe 3a91 20bd 25f9 18be
000001b0: 0a36 bdbd ef08 89bd 59a9 e7bc 9609 ebbd
000001c0: 099d ae3c a1f9 3dbd b170 e13d f602 c23b
000001d0: 5af5 9cbd 7052 4cbd 3c4f bdbd 9f15 9c3d
000001e0: 96c5 043d 3c43 cabc 0c92 73be 6c50 03be
000001f0: 6847 a93b a660 d9bc aeb5 0abe 561a 81be

layer2.2.weight f4 [128]
1.0023154 1.0056304 0.8304683 0.7868442 0.79391897 0.8110053 0.8284688 0.7859523
0.7775868 0.87445647 0.907727 0.94475377 0.8253211 0.90155834 0.97366464 0.80726075
0.90520585 0.93757063 0.8381094 0.9263751 0.85866237 0.9332329 0.9251689 0.83939123
0.9019395 0.83391523 0.77817696 0.9318752 0.86122596 0.8460239 0.917496 0.93745655
0.85896355 0.9006437 0.8365497 0.8871052 1.0011764 0.8132145 0.9348653 0.8389246
0.787402 0.9628799 1.0042735 0.9588943 0.85193217 0.8049884 0.9023195 0.9186309
0.9238291 0.93512255 0.86321896 0.97673094 0.7561074 0.81635934 0.8409942 1.0125039
1.2055625 0.8982434 0.9464966 0.87850696 0.8465245 1.0704216 1.13607 1.1783069
0.79689187 0.91423357 0.7857419 0.91793436 0.8564722 0.7644342 0.8247233 1.0022047
0.9606173 1.1805539 0.9512055 0.87116224 0.89663386 0.88250023 0.893015 0.90901923
0.8829252 0.85501647 0.9039383 0.9921085 0.95908076 0.8026504 0.94817156 1.3663179
1.0903687 0.8504353 0.81192476 0.7208742 0.78352326 0.61563796 0.83999 0.87543434
0.82388324 1.1204472 0.7368156 0.9160885 0.8535291 0.93184966 0.7399026 0.9077932
0.93979645 0.836703 0.85187656 0.8452157 0.9565529 0.77195734 0.81573176 0.88706774
0.74653774 0.9597432 0.93800974 0.8421412 0.74623287 0.85483515 1.0118816 1.0463128
0.7104298 0.75547934 1.3307813 0.8870631 0.8724769 0.68699694 0.71079135 1.2440106
00000000: df4b 803f 7fb8 803f 9299 543f 9f6e 493f
00000010: 463e 4b3f 0b9e 4f3f 8816 543f 2c34 493f
00000020: ee0f 473f 61dc 5f3f cc60 683f 62db 713f
00000030: 3e48 533f 87cc 663f 1642 793f a4a8 4e3f
00000040: 92bb 673f a104 703f 568e 563f eb26 6d3f
00000050: 4cd1 5b3f 5ae8 6e3f ded7 6c3f 58e2 563f
00000060: 82e5 663f 787b 553f 9b36 473f 608f 6e3f
00000070: 4e79 5c3f 0695 583f 05e1 6a3f 27fd 6f3f
00000080: 09e5 5b3f 9690 663f 1f28 563f 5419 633f
00000090: 8c26 803f d32e 503f 5553 6f3f c3c3 563f
000000a0: 2d93 493f 4c7f 763f 098c 803f 197a 753f
000000b0: 3a18 5a3f b813 4e3f 69fe 663f 652b 6b3f
000000c0: 1080 6c3f 3164 6f3f ebfb 5c3f 0a0b 7a3f
000000d0: 4190 413f edfc 503f 654b 573f ba99 813f
000000e0: df4f 9a3f 48f3 653f 9a4d 723f d5e5 603f
000000f0: d4b5 583f 9303 893f be6a 913f c3d2 963f
00000100: 1b01 4c3f 360b 6a3f 6226 493f bffd 6a3f
00000110: c341 5b3f f6b1 433f 1121 533f 3e48 803f
00000120: 04eb 753f 641c 973f 3482 733f 7d04 5f3f
00000130: cc89 653f 89eb 613f a29c 643f 7cb5 683f
00000140: 6307 623f 5ce2 5a3f 8068 673f d3fa 7d3f
00000150: 5186 753f 7f7a 4d3f 5fbb 723f 81e3 ae3f
00000160: 3491 8b3f 21b6 593f 4dda 4f3f 368b 383f
00000170: fb94 483f 739a 1d3f 9609 573f 771c 603f
00000180: 03ea 523f d06a 8f3f f29f 3c3f c784 6a3f
00000190: e280 5a3f b38d 6e3f 426a 3d3f 2365 683f
000001a0: 8096 703f 2b32 563f 9514 5a3f 0e60 583f
000001b0: a7e0 743f ff9e 453f ccd3 503f df16 633f
000001c0: 191d 3f3f bbb1 753f 6821 703f 9196 573f
000001d0: 1e09 3f3f 7ad6 5a3f 5685 813f 94ed 853f
000001e0: bade 353f 1867 413f 0b57 aa3f 9116 633f
000001f0: a55a 5f3f 08df 2f3f 6cf6 353f bd3b 9f3f

layer2.2.bias f4 [128]
0.12080868 -0.54650545 -0.20035094 -0.16317429 0.1497512 -0.2583491 0.1526048 -0.13677374
0.300829 0.021779248 -0.39508852 -0.2890204 0.07378703 0.27674496 -0.5245175 0.16469379
-0.46573696 -0.14953834 0.2712317 -0.46322408 0.0892002 -0.027167667 -0.44182503 -0.5779675
-0.53779584 0.013854213 0.384716 -0.39417624 -0.0012753139 -0.003611031 -0.19582663 -0.441541
-0.06269339 -0.15605825 -0.31789884 -0.32563394 -0.16358061 -0.04218937 -0.12914649 0.4073962
-0.5675411 -0.34360254 0.13232951 -0.53345555 0.005704765 0.12101528 0.044818934 -0.52174026
-0.010929599 0.03267841 -0.69796586 -0.26384374 0.018231327 -0.46855333 -0.53507286 0.2882415
0.053834192 -0.36087385 0.18920836 -0.6059762 0.34179455 0.3789032 -0.10182206 -0.11540432
-0.036527906 0.023701845 -0.030802974 0.28235853 -0.14496024 -0.08718433 -0.2600723 -0.41969892
-0.6866032 0.039012052 -0.64047474 -0.39914578 -0.31870148 -0.34250945 -0.61065215 -0.32336226
-0.44962943 0.004121902 -0.694987 0.12735933 -0.09119543 0.008307816 -0.78536373 0.0043027285
0.15224554 -0.25578648 -0.14351402 0.36014378 -0.38280356 0.16592997 0.032426354 0.26124686
-0.24892296 -0.15603562 0.0891586 0.03499629 0.074680254 -0.6529026 -0.47571084 0.030738473
-0.39177257 -0.44051895 0.2792974 -0.5448931 -0.42590436 -0.5701103 -0.49067155 -0.53842896
-0.044961885 -0.6637732 0.06580276 0.13455264 0.130223 -0.24117002 -0.4977693 0.06520736
-0.042013768 -0.10112139 -0.030503167 -0.17579825 -0.46549615 -0.03877353 -0.02091309 -0.03796902
00000000: 8b6a f73d c8e7 0bbf cc28 4dbe 2917 27be
00000010: 6158 193e 5546 84be 6f44 1c3e 6a0e 0cbe
00000020: 4206 9a3e 656a b23c 0b49 cabe 7bfa 93be
00000030: a81d 973d 84b1 8d3e c746 06bf 7da5 283e
00000040: 1375 eebe 9420 19be e2de 8a3e b52b edbe
00000050: 98ae b63d ba8e debc e436 e2be aef5 13bf
00000060: fdac 09bf c8fc 623c 7ff9 c43e 78d1 c9be
00000070: 6f28 a7ba 0ca7 6cbb c786 48be a911 e2be
00000080: 6465 80bd bccd 1fbe a3c3 a2be 7eb9 a6be
00000090: ad81 27be c3ce 2cbd fa3e 04be 3c96 d03e
000000a0: 604a 11bf acec afbe 6381 073e 8b90 08bf
000000b0: 0aef ba3b dcd6 f73d 0f94 373d c590 05bf
000000c0: 1012 33bc ccd9 053d e4ad 32bf 8716 87be
000000d0: dd59 953c 39e6 efbe 89fa 08bf 6494 933e
000000e0: 3e81 5c3d 75c4 b8be d6bf 413e 4221 1bbf
000000f0: b2ff ae3e 9aff c13e 1688 d0bd 1a59 ecbd
00000100: 499e 15bd 5f2a c23c 8556 fcbc 4c91 903e
00000110: 7570 14be b38d b2bd 3228 85be c7e2 d6be
00000120: 3ac5 2fbf 1acb 1f3d 27f6 23bf d65c ccbe
00000130: d72c a3be 665d afbe b353 1cbf bd8f a5be
00000140: d435 e6be 0511 873b abea 31bf 7c6a 023e
00000150: abc4 babd 821d 083c 990d 49bf e7fd 8c3b
00000160: 41e6 1b3e 72f6 82be 57f5 12be c464 b83e
00000170: d4fe c3be 8ce9 293e 7fd1 043d 26c2 853e
00000180: a9e5 7ebe cdc7 1fbe c998 b63d 4558 0f3d
00000190: f6f1 983d a024 27bf 5f90 f3be 40cf fb3c
000001a0: 6a96 c8be b38b e1be 1200 8f3e 1d7e 0bbf
000001b0: 2310 dabe c0f2 11bf 4d39 fbbe 7bd6 09bf
000001c0: f429 38bd 0aed 29bf 99c3 863d 2bc8 093e
000001d0: 2e59 053e 46f5 76be 9edb febe 708b 853d
000001e0: a116 2cbd bb18 cfbd c7e1 f9bc 7504 34be
000001f0: 8355 eebe fed0 1ebd ee51 abbc 6785 1bbd

layer2.2.running_mean f4 [128]
3.171622 0.016925272 0.05347429 0.4202355 3.6597466 0.42957965 0.67929286 2.4248471
0.7422096 0.07754625 2.190974e-05 3.3783603 0.37628305 0.12271513 0.06659306 7.7375665
6.9278896e-05 0.13628413 5.9738126 1.0761355e-09 2.487118 0.045670062 0.06738239 0.3876627
0.07912859 0.050478093 5.68935 5.632046 0.26064005 4.20568 0.16891235 0.05708466
1.881767 0.113154486 0.037555676 0.49533942 2.9883325 8.434485 0.22019939 4.9877625
0.3233452 0.099778324 4.511099e-08 0.14262243 2.0211258 0.08571211 9.471113 0.17185533
0.23683874 0.12623502 0.0567566 0.040794667 2.6481216 0.07644927 0.049591765 3.147458
0.048948437 0.08916257 0.39103502 0.05049933 5.973891 0.048949175 1.9556433e-12 4.8309264
2.4942634 0.078070186 0.00266619 0.09955007 0.32021174 8.0601015 3.432533 0.052081082
6e-45 2.3860183e-10 0.048163872 0.5532353 0.46426836 0.0756284 0.042969737 0.42567983
6.469156 0.0054254336 0.05311968 0.009570263 6e-45 0.11080587 0.040885758 4.754456
0.0014897857 2.2132206 0.53841597 3.4349494 0.07044517 8.280285 8.752412 0.59083116
0.00197452 8.809161e-09 0.75869745 1.6263201 4.6071897 2.8860605e-13 0.38004667 3.1972053
0.042456146 0.41298535 1.7575427 0.010448565 0.09295396 0.19883488 2.3844783 8.37123e-40
1.3531902 0.10601645 6.6658325 0.74772 0.09964104 0.6195018 0.07684799 3.5388796
2.579928 0.43919224 0.002731409 0.07833024 1.5295745 0.19701138 0.006746323 0.011796884
00000000: dbfb 4a40 dea6 8a3c db07 5b3d 1c29 d73e
00000010: 4a39 6a40 ddf1 db3e 23e6 2d3f b230 1b40
00000020: 7301 3e3f 91d0 9e3d cfca b737 0e37 5840
00000030: 2ca8 c03e 1252 fb3d f161 883d 259a f740
00000040: d349 9138 118e 0b3e 7929 bf40 27e7 9330
00000050: f12c 1f40 8810 3b3d c7ff 893d ba7b c63e
00000060: 2c0e a23d 1ec2 4e3d 280f b640 b939 b440
00000070: 9d72 853e ee94 8640 5cf7 2c3e 9bd1 693d
00000080: bedd f03f 8abd e73d fbd3 193d 219d fd3e
00000090: d740 3f40 a7f3 0641 f37b 613e c09b 9f40
000000a0: 818d a53e 9458 cc3d 0fc0 4133 9d0b 123e
000000b0: 205a 0140 d589 af3d ae89 1741 d8fa 2f3e
000000c0: db85 723e c143 013e 9c79 683d 4f18 273d
000000d0: d37a 2940 6f91 9c3d bc20 4b3d f46f 4940
000000e0: 287e 483d de9a b63d be35 c83e 63d8 4e3d
000000f0: 1d2a bf40 ee7e 483d bd9d 092c f396 9a40
00000100: 03a2 1f40 43e3 9f3d 3fbb 2e3b e8e0 cb3d
00000110: cbf2 a33e 2df6 0041 9fae 5b40 f952 553d
00000120: 0400 0000 392c 832f 7b47 453d d4a0 0d3f
00000130: 95b4 ed3e 10e3 9a3d 0901 303d b5f2 d93e
00000140: 5303 cf40 d6c7 b13b 0694 593d 98cc 1c3c
00000150: 0400 0000 30ee e23d d377 273d 8124 9840
00000160: ea44 c33a 68a5 0d40 a1d5 093f 36d6 5b40
00000170: 8f45 903d 0c7c 0441 e109 0c41 b640 173f
00000180: f366 013b 1a57 1732 ff39 423f 422b d03f
00000190: 196e 9340 8478 a22a 7a95 c23e 039f 4c40
000001a0: 7fe6 2d3d d172 d33e 29f7 e03f 7530 2b3c
000001b0: a55e be3d 5f9b 4b3e 4b9b 1840 8f1d 0900
000001c0: 5635 ad3f 271f d93d 804e d540 946a 3f3f
000001d0: 9a10 cc3d ac97 1e3f 7b62 9d3d 017d 6240
000001e0: 8a1d 2540 cedd e03e 7001 333b 9b6b a03d
000001f0: 19c9 c33f 5abd 493e 4210 dd3b b847 413c

layer2.2.running_var f4 [128]
1.7870233 0.028095076 0.2608657 1.1012889 18.235638 1.1414557 2.5963519 2.8503
3.598092 0.2979262 5.0739964e-05 6.7537704 1.5756717 0.47198704 0.61488956 24.209188
2.9977318e-05 0.8043569 31.7801 1.0426695e-09 9.96849 0.12956426 0.62724274 0.8714448
0.32458064 0.1353391 10.89841 13.007687 0.9084832 13.031641 0.7009314 0.45172408
9.95113 0.57623225 0.07960973 2.5425458 1.9854829 18.166353 0.8532498 22.104227
1.7617248 0.21065126 4.1282807e-08 0.30543098 4.993193 0.33156034 24.50062 0.4288342
0.82127404 0.39804718 0.45168626 0.24106158 13.845578 0.7570873 0.32090306 2.2195356
0.13320512 0.20115744 1.7167447 0.35626304 17.658796 0.34230274 1.6699099e-12 0.7603902
11.30855 0.27295858 0.0053091943 1.062676 1.2378991 12.057166 7.558088 0.081849486
6e-45 1.0026555e-10 0.3417232 1.2479582 1.499423 0.14622091 0.25656083 1.141944
19.222948 0.01997739 0.2997183 0.04263121 6e-45 0.42653736 0.23539698 0.80483794
0.0076125287 11.581357 1.5331572 14.399905 0.6584645 6.3328404 8.198784 2.866471
0.004773227 1.482621e-09 3.7085557 4.585456 15.401861 3.525962e-14 0.98665184 1.1865586
0.13835944 2.0480287 9.199676 0.0330398 0.15815979 0.62010396 10.189945 5.29895e-40
2.4433753 1.3194296 15.964796 1.7012349 0.38414893 2.4556594 0.16789162 1.251857
13.066811 1.0931848 0.004340792 0.15981941 7.420855 0.8083733 0.017378155 0.023143878
00000000: 2ebd e43f a527 e63c 3090 853e 09f7 8c3f
00000010: 96e2 9141 381b 923f a12a 2640 516b 3640
00000020: 2447 6640 c889 983e 9fd1 5438 e31e d840
00000030: 9caf c93f 49a8 f13e 6769 1d3f 6bac c141
00000040: cd77 fb37 55ea 4d3f a53d fe41 ac4d 8f30
00000050: ef7e 1f41 7eac 043e fb92 203f 0217 5f3f
00000060: 6f2f a63e 5596 0a3e e35f 2e41 7c1f 5041
00000070: 5b92 683f 9a81 5041 3d70 333f 6148 e73e
00000080: d437 1f41 f583 133f 6d0a a33d 12b9 2240
00000090: 4e24 fe3f b154 9141 946e 5a3f 75d5 b041
000000a0: 3380 e13f f7b4 573e ed4e 3133 7361 9c3e
000000b0: 3dc8 9f40 47c2 a93e 4501 c441 2890 db3e
000000c0: 043f 523f d7cc cb3e 6c43 e73e d9d8 763e
000000d0: 7d87 5d41 79d0 413f 684d a43e df0c 0e40
000000e0: ec66 083e 37fc 4d3e 4abe db3f 1c68 b63e
000000f0: 3745 8d41 4e42 af3e d804 eb2b efa8 423f
00000100: d2ef 3441 3ac1 8b3e c0f8 ad3b c405 883f
00000110: 7a73 9e3f 27ea 4041 dbdb f140 b4a0 a73d
00000120: 0400 0000 7d7c dc2e 58f6 ae3e 18bd 9f3f
00000130: 18ed bf3f efba 153e f15b 833e 392b 923f
00000140: 99c8 9941 a0a7 a33c ad74 993e 109e 2e3d
00000150: 0400 0000 1b63 da3e e80b 713e dc09 4e3f
00000160: 8572 f93b 3d4d 3941 7f3e c43f 0366 6641
00000170: 2191 283f a1a6 ca40 382e 0341 4374 3740
00000180: bb68 9c3b 17c5 cb30 fa58 6d40 0ebc 9240
00000190: 066e 7641 93cb 1e29 3795 7c3f 27e1 973f
000001a0: 19ae 0d3e e712 0340 df31 1341 be54 073d
000001b0: a4f4 213e 22bf 1e3f 040a 2341 22c5 0500
000001c0: 4360 1c40 12e3 a83f ce6f 7f41 11c2 d93f
000001d0: 2baf c43e 8629 1d40 c8eb 2b3e da3c a03f
000001e0: a811 5141 7bed 8b3f 343d 8e3b b3a7 233e
000001f0: a577 ed40 8df1 4e3f a25c 8e3c 3b98 bd3c

layer3.0.weight f4 [64, 128, 3, 3]
0.025847154 -0.02351502 0.036341984 -0.00060832413 -0.029854337 0.044783153 0.024591377 -0.028328402
-9.8197925e-05 -0.012185748 -0.0006740259 -0.022615239 -0.007859077 -0.019464178 0.005295905 0.0018224749
-0.008127884 -0.009383411 -0.02128367 -0.013355998 -0.00059133716 -0.016436145 -0.015188084 0.007557638
-0.007202546 -0.0063798134 -0.0058420803 0.05334603 -0.0024697934 0.036444657 0.0026926873 0.012091264
0.015692996 0.010822774 0.016066764 0.047121678 -0.025802063 -0.015831497 0.0128792925 -0.0027282394
0.017365891 0.01655346 -0.0002562523 -0.002728029 -0.007434318 -0.03234267 -0.008561581 -0.04103714
-0.025299096 -0.03998898 -0.050433233 -0.02975132 -0.00063575065 -0.04412658 -0.022671975 0.0019796821
-0.019679133 -0.011200534 0.008536767 0.006781381 -0.013840213 0.0062594097 0.015861483 0.026004916
-0.025064923 0.0074703437 0.026861975 -0.06489653 -0.015691387 0.026133114 0.0088294605 0.0062243156
-0.0010751614 0.008447511 0.002690431 6.352445e-05 0.0131815635 0.051651876 -0.005065612 -0.026213655
0.01115915 0.023134995 0.05102962 -0.0031269335 0.01811687 0.039971765 0.011078206 -0.012389941
0.057624962 -0.002113987 0.019584086 -0.0634728 0.005742685 -0.031405184 -0.035081223 0.016946355
0.0050420896 -0.03778677 0.041796416 -0.012739736 -0.0062746615 -0.008779783 -0.010242451 -0.04187689
-0.041972686 -0.033905752 -0.027076792 -0.029753562 0.0032046556 0.03065142 -0.012690952 0.011439561
0.0034231571 -0.007955298 -0.005071149 -0.008315399 0.0025077176 -0.0151741365 -0.019799417 -0.015227229
0.019926414 -0.0016431868 0.0805092 -0.00085536693 -0.015963683 0.031582087 -0.002395139 0.03039746
0.03750442 0.015283934 0.06341086 0.02755156 -0.008236878 0.026499366 -0.007260168 -0.009935057
-0.016444115 -0.01908727 0.009547963 -0.03534856 0.0058096903 0.004181826 0.01800933 -0.017739125
0.0055383705 -0.008152752 -0.012534774 0.0013404961 0.0218432 0.0065912683 -0.037809674 -0.021201184
-0.027616154 0.016103335 0.023544885 0.015742306 0.0069103264 0.015908752 0.044234313 0.003474161
0.00068519864 0.03301716 -0.0038697247 -0.022896042 0.00047878962 -0.030198175 0.009328763 0.016344795
-0.031730834 0.0073622917 -0.030506475 -0.011446781 0.02582173 0.026051795 0.027805481 0.013516755
0.039339375 0.02758402 0.018664062 0.030803954 0.00964716 -0.007548828 -0.0016809426 -0.018458912
-0.016592937 -0.011469797 -0.0043661087 -0.0072978064 0.003696202 -0.018170808 -0.010695662 -0.029494153
0.004626799 0.04389394 0.05139929 -0.018024327 -0.006544281 0.0052918517 0.036310863 0.05562032
0.047437813 0.027067628 0.019940818 0.012987703 0.006575102 0.017332971 -0.0012451467 -0.010428647
0.0011860835 -0.006864596 0.04952487 -1.0926677e-05 0.017954556 0.017041154 0.013505622 0.034087498
-0.045800816 0.008492676 0.009997618 -0.048013106 0.018024275 -0.004549316 -0.025654202 0.011195434
0.00020112662 0.021376628 0.039135315 0.040017616 0.008212163 0.029759994 0.025020229 -0.011282535
-0.006868672 -0.005401705 -0.007181543 0.033788048 0.011160123 -0.017055871 -0.018169075 0.023473969
0.012578789 -0.000939376 0.028358739 -0.02652157 -0.007987435 -0.015905106 -0.02743003 0.018715471
-0.031468086 -0.0064122383 0.011000592 0.010684696 0.0343235 0.0065213135 -0.015230315 0.030245839
00000000: 69bd d33c 92a2 c0bc 55db 143d f177 1fba
00000010: 1591 f4bc 8a6e 373d db73 c93c f710 e8bc
00000020: 9cef cdb8 bba6 47bc 1db1 30ba 9843 b9bc
00000030: 5cc3 00bc 5773 9fbc 4589 ad3b 1ce0 ee3a
00000040: d12a 05bc e1bc 19bc 175b aebc 1ed3 5abc
00000050: f703 1bba 18a5 86bc 71d7 78bc 10a6 f73b
00000060: 5603 ecbb c10d d1bb ec6e bfbb 5e81 5a3d
00000070: 42dc 21bb fe46 153d cc77 303b 701a 463c
00000080: 998e 803c 0152 313c 729e 833c a902 413d
00000090: d95e d3bc 0eb1 81bc ab03 533c 43cc 32bb
000000a0: ea42 8e3c 1f9b 873c 9a59 86b9 bbc8 32bb
000000b0: 949b f3bb bf79 04bd e045 0cbc 8f16 28bd
000000c0: 0d40 cfbc 7ccb 23bd 1493 4ebd 0ab9 f3bc
000000d0: 81a8 26ba 13be 34bd 94ba b9bc 8ebd 013b
000000e0: 2236 a1bc 7282 37bc ccdd 0b3c 5936 de3b
000000f0: 10c2 62bc bc1b cd3b f1ef 813c 4308 d53c
00000100: f454 cdbc c9c9 f43b a50d dc3c 79e8 84bd
00000110: 398b 80bc 1d15 d63c 71a9 103c 58f5 cb3b
00000120: 6eec 8cba 6e67 0a3c f151 303b 6e38 8538
00000130: 7cf7 573c eb90 533d 6ffd a5bb 05be d6bc
00000140: ded4 363c 9a85 bd3c 6f04 513d 3ded 4cbb
00000150: d569 943c 6fb9 233d 5d81 353c 2eff 4abc
00000160: 2708 6c3d d18a 0abb ce6e a03c 07fe 81bd
00000170: 222d bc3b b9a2 00bd 54b1 0fbd 15d3 8a3c
00000180: 1d38 a53b 4dc6 1abd b832 2b3d 53ba 50bc
00000190: ad9b cdbb 14d9 0fbc f4cf 27bc 1a87 2bbd
000001a0: 8deb 2bbd c2e0 0abd 26d0 ddbc bebd f3bc
000001b0: 3305 523b b018 fb3c b6ed 4fbc ff6c 3b3c
000001c0: 0c57 603b f056 02bc e22b a6bb 503d 08bc
000001d0: 8558 243b f19c 78bc 6332 a2bc a17b 79bc
000001e0: b83c a33c 3360 d7ba 02e2 a43d b43a 60ba
000001f0: 45c6 82bc 385c 013d c4f7 1cbb 1804 f93c
00000200: 3c9e 193d 7769 7a3c 8edd 813d cfb3 e13c
00000210: f8f3 06bc 3315 d93c b4e6 edbb a6c6 22bc
00000220: cfb5 86bc e85c 9cbc 0f6f 1c3c a7c9 10bd
00000230: 375f be3b b307 893b 4d88 933c a451 91bc
00000240: 387b b53b 1f93 05bc a75e 4dbc 96b3 af3a
00000250: 83f0 b23c 91fb d73b 51de 1abd 1bae adbc
00000260: 463b e2bc 24eb 833c 34e1 c03c 02f6 803c
00000270: 0570 e23b 1253 823c 0a2f 353d c0ae 633b
00000280: e79e 333a 003d 073d 359b 7dbb 7b90 bbbc
00000290: 0e06 fb39 2a62 f7bc abd7 183c 85e5 853c
000002a0: 31f8 01bd 613f f13b b7e8 f9bc 488b 3bbc
000002b0: 1888 d33c 936a d53c 52c8 e33c 6175 5d3c
000002c0: 5322 213d e2f7 e13c 60e5 983c 9358 fc3c
000002d0: 1f0f 1e3c 295c f7bb 1353 dcba 2537 97bc
000002e0: e9ed 87bc d1eb 3bbc 9311 8fbb 7022 efbb
000002f0: fb3b 723b f2da 94bc dc3c 2fbc b99d f1bc
00000300: 679c 973b 22ca 333d 1088 523d c1a7 93bc
00000310: 6871 d6bb 4567 ad3b b3ba 143d 22d2 633d
00000320: 274e 423d eebc dd3c ed5a a33c 60ca 543c
00000330: f473 d73b e0fd 8d3c 3134 a3ba eadc 2abc
00000340: 5c76 9b3a 68f0 e0bb 97da 4a3d b851 37b7
00000350: 6f15 933c e499 8b3c af46 5d3c 559f 0b3d
00000360: a399 3bbd dd24 0b3c 0dcd 233c 64a9 44bd
00000370: a5a7 933c 6e12 95bb c328 d2bc 0e6d 373c
00000380: 84e5 5239 0a1e af3c 5a4c 203d 83e9 233d
00000390: 4f8c 063c 3bcb f33c 39f7 cc3c 62da 38bc
000003a0: 9912 e1bb c900 b1bb 2653 ebbb 5665 0a3d
000003b0: f3d8 363c c1b8 8bbc 50d7 94bc 7b4c c03c
000003c0: 4417 4e3c 7540 76ba 9650 e83c c343 d9bc
000003d0: bbdd 02bc 6d4b 82bc f1b4 e0bc 3051 993c
000003e0: aee4 00bd c11d d2bb d43b 343c dd0e 2f3c
000003f0: cc96 0c3d beb0 d53b 9288 79bc 1fc6 f73c

layer3.0.bias f4 [64]
-0.007904666 -0.07898666 0.2017562 0.1515284 -0.10627979 0.10296772 -0.121951066 -0.19552611
0.050797135 0.016966367 0.17789079 -0.0744583 -0.006598042 0.28026727 0.20478602 -0.030644357
0.24221039 0.15398407 0.12288383 0.2052503 -0.054911345 -0.049953558 0.24637932 -0.06847906
-0.040161848 0.3315989 -0.020697383 0.07611454 0.024232754 -0.039912708 -0.0050469227 -0.23209897
0.093309 0.22015482 0.09534763 0.118197404 -0.11750687 0.17376417 0.12306857 -0.07438786
0.1813151 -0.05089884 -0.05014846 -0.07704905 -0.018176269 0.03451131 -0.08973351 -0.062190093
-0.14765799 0.13505772 0.001112626 -0.1529641 -0.12446396 -0.12502751 -0.019101668 -0.11178759
-0.17021327 0.028569775 0.20655307 -0.015819425 0.2312253 -0.07271186 0.05550277 -0.15189743
00000000: 9282 01bc c2c3 a1bd 2d99 4e3e 432a 1b3e
00000010: 38a9 d9bd bde0 d23d 7bc1 f9bd ff37 48be
00000020: a810 503d 0dfd 8a3c 0129 363e 987d 98bd
00000030: 6334 d8bb 317f 8f3e 6db3 513e e009 fbbc
00000040: 0006 783e 00ae 1d3e 84aa fb3d 222d 523e
00000050: b8ea 60bd 1a9c 4cbd dc4a 7c3e c03e 8cbd
00000060: c080 24bd 55c7 a93e 8f8d a9bc f1e1 9b3d
00000070: c583 c63c 827b 23bd a860 a5bb 5aab 6dbe
00000080: ca18 bf3d 4470 613e 9e45 c33d 7b11 f23d
00000090: 71a7 f0bd 3cef 313e 600b fc3d aa58 98bd
000000a0: aaaa 393e 4d7b 50bd 7968 4dbd e4cb 9dbd
000000b0: 66e6 94bc bb5b 0d3d 34c6 b7bd 0abb 7ebd
000000c0: a833 17be 924c 0a3e 89d5 913a 9fa2 1cbe
000000d0: f6e6 febd 3607 00be 1a7b 9cbc e4f0 e4bd
000000e0: 634c 2ebe 290b ea3c a682 533e bd97 81bc
000000f0: 53c6 6c3e f5e9 94bd df56 633d 008b 1bbe

layer3.2.weight f4 [64]
0.5281754 0.8447779 0.7241151 0.7510443 0.8143128 0.69636047 0.7210253 0.8218541
0.73552424 0.53210425 0.77383 0.81043535 0.7332288 0.35101998 0.45271307 0.70409197
0.6454849 0.8045273 0.46121064 0.21737531 0.8197516 0.72946936 0.6736972 0.7735459
0.7763957 0.5744712 0.7208846 0.334175 0.8440932 0.6863024 0.85725945 0.8855891
0.2481738 0.64617515 0.32987276 0.2887642 0.7983226 0.27061567 0.6422644 0.8389982
0.6946929 0.7653042 0.7649929 0.8526557 0.7261928 0.5915516 0.8357327 0.7793407
0.8377233 0.45053992 0.8100845 0.8896063 0.8857108 0.7761333 0.7104003 0.7242491
0.8132724 0.77828526 0.51695 0.80771726 0.4666811 0.8511403 0.5095899 0.8595377
00000000: 8136 073f 5d43 583f 9b5f 393f 7044 403f
00000010: ce76 503f ae44 323f 1d95 383f 0865 523f
00000020: 514b 3c3f fc37 083f b919 463f b178 4f3f
00000030: e2b4 3b3f e4b8 b33e 02ca e73e 5f3f 343f
00000040: 803e 253f 80f5 4d3f cd23 ec3e a297 5e3e
00000050: 3edb 513f 81be 3a3f 6b77 2c3f 1b07 463f
00000060: dec1 463f 8b10 133f e58b 383f fc18 ab3e
00000070: 7e16 583f 84b1 2f3f 5b75 5b3f f8b5 623f
00000080: 4621 7e3e bc6b 253f 15e5 a83e e7d8 933e
00000090: df5e 4c3f 238e 8a3e 716b 243f 96c8 563f
000000a0: 65d7 313f faea 433f 93d6 433f a547 5a3f
000000b0: c5e7 393f ed6f 173f 94f2 553f df82 473f
000000c0: 0975 563f 2bad e63e b361 4f3f 3dbd 633f
000000d0: f1bd 623f acb0 463f cbdc 353f 6468 393f
000000e0: 9f32 503f b43d 473f d656 043f 8fc6 4e3f
000000f0: d3f0 ee3e 55e4 593f 7c74 023f aa0a 5c3f

layer3.2.bias f4 [64]
0.06921163 0.11090378 -0.08422156 -0.09201058 0.07229222 -0.08001703 0.12805392 0.07178003
-0.08516163 0.029668266 -0.07600164 -0.018759537 0.12695676 0.033575505 0.040891957 0.073174626
-0.08105434 0.11872998 -0.023161415 0.004906588 0.09356902 0.13605766 -0.06321798 0.096857436
0.074734055 -0.08383478 -0.027048204 -0.013767175 0.12459259 0.07799542 0.11162743 0.05074533
-0.02107688 -0.08013183 0.02321721 -0.011906015 0.0886884 -0.011660597 -0.06815643 0.108673476
-0.08490354 0.11658334 0.08473654 0.076313764 0.07969231 -0.06706314 0.106847666 -0.006622695
-0.0127808405 -0.037617825 -0.0103601 0.08385685 0.10924338 0.09456518 0.027980912 -0.010730696
0.016338047 0.015967743 -0.06333883 0.09736126 0.0104718935 0.10894395 0.043483347 0.109150566
00000000: d4be 8d3d 8521 e33d 5a7c acbd 0b70 bcbd
00000010: f20d 943d f8df a3bd 9120 033e 6901 933d
00000020: 3869 aebd dd0a f33c bfa6 9bbd 9aad 99bc
00000030: f400 023e 7886 093d 537e 273d 94dc 953d
00000040: d1ff a5bd b428 f33d 02bd bdbc 71c7 a03b
00000050: 1da1 bf3d b352 0b3e 6e78 81bd 315d c63d
00000060: 2b0e 993d 92b1 abbd 3294 ddbc b88f 61bc
00000070: 662a ff3d 10bc 9f3d ec9c e43d 56da 4f3d
00000080: 6ca9 acbc 281c a4bd 0532 be3c 7211 43bc
00000090: 44a2 b53d 170c 3fbc 9995 8bbd 3390 de3d
000000a0: e8e1 adbd 3fc3 ee3d 5a8a ad3d 644a 9c3d
000000b0: b935 a33d 6658 89bd f3d2 da3d 3103 d9bb
000000c0: bb66 51bc 2615 1abd 69bd 29bc 24bd ab3d
000000d0: feba df3d 64ab c13d 3a38 e53c cdcf 2fbc
000000e0: 5ed7 853c c9ce 823c cab7 81bd 5765 c73d
000000f0: 4e92 2b3c 011e df3d 981b 323d 558a df3d

layer3.2.running_mean f4 [64]
0.4050179 0.37087137 13.909741 11.572843 0.47948477 11.892476 0.7985002 0.49989387
3.5198944 0.45732653 18.245935 0.1140265 1.6693134 7.740825 6.2796745 0.4067666
17.646313 6.099571 6.33895 7.94777 0.50593024 1.0054153 12.403406 0.36273038
0.33436087 15.2436905 0.84554636 4.742833 1.0165367 0.24518168 0.45351422 0.41693726
5.8238215 15.024546 7.9210873 7.0313163 0.35443792 7.5368724 11.699506 0.74242014
15.626058 0.7259932 0.4109177 0.46446759 0.2329011 11.160045 0.2707065 0.61451703
0.6882684 8.345742 0.21745089 0.6341818 0.29074496 0.5665026 0.3852593 0.67184144
0.5535232 0.824526 9.222007 0.40300328 6.773351 0.6044845 3.8366137 0.71437126
00000000: 825e cf3e dae2 bd3e 4d8e 5e41 5d2a 3941
00000010: 077f f53e 9547 3e41 826a 4c3f 17f2 ff3e
00000020: f345 6140 b426 ea3e adf7 9141 ba86 e93d
00000030: 10ac d53f d7b4 f740 18f3 c840 b643 d03e
00000040: a62b 8d41 b02f c340 aed8 ca40 2254 fe40
00000050: a584 013f 73b1 803f 5a74 4641 ccb7 b93e
00000060: 5931 ab3e 28e6 7341 ba75 583f 4ac5 9740
00000070: e01d 823f e810 7b3e 0433 e83e cd78 d53e
00000080: bf5c ba40 8a64 7041 8c79 fd40 8b00 e140
00000090: e378 b53e 0f2e f140 2d31 3b41 3f0f 3e3f
000000a0: 5504 7a41 b1da 393f ce63 d23e b2ce ed3e
000000b0: a07d 6e3e 8b8f 3241 0b9a 8a3e fd50 1d3f
000000c0: 5c32 303f 2988 0541 72ab 5e3e bd59 223f
000000d0: 86dc 943e 5006 113f b540 c53e cdfd 2b3f
000000e0: b2b3 0d3f 2314 533f 578d 1341 7256 ce3e
000000f0: 4bbf d840 7fbf 1a3f 148b 7540 09e1 363f

layer3.2.running_var f4 [64]
10.839191 8.378335 44.441677 45.329906 15.775967 64.87032 11.803161 26.576107
76.605034 28.774895 97.55719 2.8380382 19.880308 8.928528 6.6106524 16.553211
60.302692 50.077812 7.7194366 3.7527318 16.842133 15.919189 38.92242 9.959427
8.094424 39.868824 57.76699 4.072236 47.083805 4.446433 13.651322 20.298191
3.6303344 47.731365 10.084075 9.57906 12.781509 8.335309 37.546085 29.195984
72.97693 29.336973 9.683457 21.30512 4.349433 82.78177 5.4938674 31.60885
40.954327 4.7969413 7.461803 31.492956 8.373117 20.547821 11.974602 45.426765
34.232563 38.87554 8.404696 11.384227 6.359968 25.835596 7.6156497 35.637226
00000000: 546d 2d41 a90d 0641 47c4 3142 d351 3542
00000010: 5c6a 7c41 9bbd 8142 bfd9 3c41 de9b d441
00000020: c735 9942 fc32 e641 481d c342 6ba2 3540
00000030: df0a 9f41 40db 0e41 778a d340 fa6c 8441
00000040: f535 7142 ae4f 4842 a005 f740 c22c 7040
00000050: b0bc 8641 00b5 7e41 8fb0 1b42 d059 1f41
00000060: c382 0141 ad79 1f42 6611 6742 c24f 8240
00000070: d155 3c42 2e49 8e40 d16b 5a41 b262 a241
00000080: 6657 6840 ebec 3e42 5f58 2141 d443 1941
00000090: 1081 4c41 6d5d 0541 312f 1642 6091 e941
000000a0: 30f4 9142 1fb2 ea41 71ef 1a41 e370 aa41
000000b0: 8e2e 8b40 4490 a542 c3cd af40 edde fc41
000000c0: 3bd1 2342 8b80 9940 17c7 ee40 93f1 fb41
000000d0: 4af8 0541 f061 a441 f897 3f41 02b5 3542
000000e0: 25ee 0842 8e80 1b42 a379 0641 cb25 3641
000000f0: dc84 cb40 4daf ce41 67b3 f340 858c 0e42
